saved_models/rootad_lorenz96_ws_1_stride_1_encoder_alpha_0.5_decoder_alpha_0.5_encoder_gamma_0.5_decoder_gamma_0.5_encoder_lambda_0.5_decoder_lambda_0.5_beta_0.5_lr_0.0001_epochs_1000_hidden_layer_size_50_num_hidden_layers_2.pt (torch, 302687 bytes, 18 tensors)

encoder.coeff_nets.0.0.0.weight f4 [50, 20]
0	0x3c5bc257	0.013413033
1	0x3e838505	0.25687423
2	0xbcf10bab	-0.029424509
3	0xbcc7acfb	-0.024374476
4	0xbd3dbdbe	-0.04632353
5	0x3d0272ab	0.031847637
6	0x3c873b13	0.016507661
7	0x3c9155e6	0.017741155
8	0x3b67b57e	0.003535598
9	0x3cf50d3f	0.029913543
10	0xba117453	-0.00055486447
11	0x3c9968f1	0.018726798
12	0xbcf0c2d5	-0.029389778
13	0x3c845988	0.016155973
14	0x3c47d0b8	0.0121957585
15	0x3c70e8b6	0.01470392
16	0xbc831ae5	-0.016004035
17	0xbc9c76e9	-0.01909967
18	0xbde43230	-0.11142385
19	0xbebbe1eb	-0.366958
20	0x3cee55be	0.02909362
21	0x3d9452e9	0.07242376
22	0xbc3278ef	-0.010893091
23	0x3e05d780	0.13070488
24	0x3cd82d6f	0.026388852
25	0x3c905078	0.017616495
26	0x3dfca9f1	0.12337101
27	0xbd78cd64	-0.06074275
28	0x3c920439	0.01782428
29	0xbcbd6add	-0.023122245
30	0xbdb0c8b2	-0.086320296
31	0x3e0ffaab	0.14060466
32	0xbdfe1457	-0.12406223
33	0xbde1b3a7	-0.11020594
34	0xbdfd6443	-0.12372639
35	0xbe9aca3c	-0.30232418
36	0xbe6d339f	-0.23164223
37	0x3e534bd5	0.20634396
38	0x3e046798	0.12930143
39	0x3e16471e	0.14675567
40	0x3c893b2b	0.016751846
41	0xbcbf7c06	-0.023374569
42	0xbbdb60a9	-0.0066948724
43	0xbe5cd4c8	-0.21565545
44	0xbedda839	-0.43292406
45	0xbdea0070	-0.11425865
46	0x3e779817	0.24179111
47	0x3c9f7bd5	0.019468227
48	0xbc04a2c2	-0.008095445
49	0x3d0edb8f	0.034877356
50	0x3cef86df	0.029239116
51	0x3d99ac03	0.07503512
52	0x3ce047fe	0.027378079
53	0x3c802db7	0.015646799
54	0x3d46ad7a	0.048505284
55	0xbd6f754c	-0.058461472
56	0x3cbe2b28	0.023213938
57	0xbdb6f89a	-0.08934136
58	0x3b9990ef	0.004686467
59	0xbdb6793f	-0.089098446
60	0x3e0331fe	0.1281204
61	0x3e2b0aa6	0.16703281
62	0x39df069c	0.000425388
63	0x3d854f54	0.06509271
64	0x3dede2ee	0.11615549
65	0x3ddc8072	0.107666865
66	0xba80c20f	-0.0009823459
67	0x3e1d3566	0.15352401
68	0x3dd08ea2	0.10183455
69	0x3e79a69c	0.24379963
70	0xbd5b5cef	-0.053555425
71	0x3dad0b7c	0.08449456
72	0x3dc71782	0.09721281
73	0x3e2e7293	0.17035894
74	0x3e37234d	0.1788456
75	0x3e10dacc	0.14145964
76	0x3d8190e4	0.06326464
77	0xbd81d022	-0.06338526
78	0x3ccb1d13	0.024794137
79	0x3c1faa33	0.0097451685
80	0xbd00fbee	-0.03149026
81	0x3e194ab1	0.14969899
82	0x3e2c2752	0.16811875
83	0xbe1392e8	-0.14411509
84	0x3d3e430a	0.046450652
85	0xbcfc5267	-0.030801011
86	0xbc3ee31b	-0.011650826
87	0xbd0c217a	-0.034211613
88	0x3d1beb7d	0.038066376
89	0x3c84235b	0.01613014
90	0xbbdc6e64	-0.006727027
91	0x3e2989bb	0.16556446
92	0x3dfc2a01	0.12312699
93	0x3e153064	0.14569241
94	0xbcb567f0	-0.022144288
95	0xbe25ad89	-0.1617948
96	0x3e08035b	0.1328253
97	0x3d34d879	0.044151757
98	0x3c0e1e4a	0.008674214
99	0xbd809163	-0.0627773
100	0x3ddb2558	0.10700482
101	0x3db5d0be	0.08877705
102	0x3be0f3e4	0.0068650115
103	0x3c8025f5	0.0156431
104	0xbd9be57a	-0.076121286
105	0xbc9d90b1	-0.019234033
106	0xbdf14661	-0.11781002
107	0xbcfd59e2	-0.030926649
108	0xbcaf0269	-0.021363454
109	0x3d2be7ac	0.041968986
110	0xbb98cdc1	-0.0046631997
111	0x3d56c104	0.052430168
112	0xbc2885b4	-0.010285784
113	0x3e016ebd	0.126399
114	0x3e616de8	0.22014582
115	0xbe3a3b12	-0.18186596
116	0xbe6d8df9	-0.2319869
117	0x3b258602	0.0025256877
118	0x3e1b9d29	0.1519667
119	0x3e099cd4	0.13438731
120	0x3d59d9fb	0.053186398
121	0x3db30fda	0.08743258
122	0x3d2ed8bd	0.042687166
123	0x3e3a7d8b	0.18211953
124	0xbe469603	-0.19393162
125	0xbbbd7aef	-0.005782477
126	0xbc1c7667	-0.009549714
127	0xbb71bc21	-0.0036885815
128	0x3ca2fa98	0.019894883
129	0x3b0cabdd	0.0021464743
130	0x3d7e6de8	0.062116534
131	0x3d9ceeeb	0.076627575
132	0x3db8f314	0.090307385
133	0x3dbd0b2c	0.092306465
134	0x3e3bc509	0.18336882
135	0x3c88860c	0.016665481
136	0x3d4c0f00	0.049818993
137	0x3dd528e2	0.104081884
138	0x3e0acdc6	0.13555059
139	0x3df7196f	0.12065398
140	0x3e2eae66	0.17058715
141	0x3e321ea4	0.17394501
142	0x3ea488b6	0.32135552
143	0x3d46a771	0.04849953
144	0xbe6b7371	-0.22993256
145	0xbd409552	-0.047017403
146	0x3d25b35f	0.040454265
147	0xbd95e4df	-0.07319044
148	0x3b1a942a	0.0023586848
149	0xbd4fa8ad	-0.05069797
150	0xbc596c18	-0.0132704
151	0xbd3a1a3e	-0.045435183
152	0xbd0841a8	-0.03326574
153	0xbd2c9483	-0.04213382
154	0xbba0d695	-0.0049083927
155	0xb895c97a	-7.1424016e-05
156	0xbc820895	-0.015873233
157	0xbd293463	-0.041309725
158	0xbb859c4c	-0.00407747
159	0xbdc1b107	-0.094575934
160	0xbbaf1d83	-0.0053440942
161	0x3c153303	0.0091064
162	0xbbba811f	-0.005691662
163	0x3be06b7a	0.0068487497
164	0xba84b31a	-0.0010124177
165	0xbd46ce0b	-0.04853634
166	0x3cd68cd2	0.026190195
167	0xbe3c91a3	-0.18414931
168	0xbec97465	-0.39346614
169	0xbd69eee2	-0.057112582
170	0x3e8ea3b5	0.27859274
171	0xbd642804	-0.055702224
172	0x3d1d0837	0.038337912
173	0xbcedcf50	-0.029029518
174	0x3cd40989	0.025883453
175	0x3cc1daee	0.023663964
176	0x3c3dc02f	0.011581465
177	0xbcae7ea3	-0.02130062
178	0x3cad5e0f	0.021163015
179	0xbbe3e4a5	-0.006954747
180	0xbb87b263	-0.0041411384
181	0xbc0d9571	-0.008641587
182	0x3da1e392	0.07904734
183	0x3b53214d	0.0032215894
184	0x3d852d0c	0.06502733
185	0x3d9bfbae	0.076163635
186	0xbd2f5fdd	-0.04281603
187	0x3d181c2e	0.03713625
188	0xbe1a94ef	-0.15095876
189	0x3ddd0499	0.107918926
190	0x3e501749	0.20321383
191	0x3e4c0d8e	0.19927046
192	0xbe403ee9	-0.18773998
193	0xbaf04ca0	-0.0018333383
194	0xbe038cab	-0.1284663
195	0xbdaf7334	-0.08566895
196	0xbd89da85	-0.067311324
197	0x3d42558c	0.047444865
198	0xbd76f4ca	-0.060292043
199	0x3afca80b	0.0019276155
200	0xbc038895	-0.008028169
201	0x3c48469a	0.012223864
202	0xbdfd1061	-0.1235664
203	0xbea0be3f	-0.31395146
204	0xbdf449ff	-0.11928176
205	0x3e53cf13	0.20684461
206	0x3c0c834d	0.008576226
207	0x3d849dd3	0.06475415
208	0x3ce0cf38	0.02744256
209	0x3c4e4288	0.0125891045
210	0x3c7b075f	0.015321582
211	0xbc1c8d7c	-0.009555217
212	0x3c726905	0.014795546
213	0x3a279ed1	0.000639421
214	0x3ade1f47	0.0016946577
215	0xbbbe9c53	-0.005816975
216	0x399461bf	0.00028301586
217	0xbcd7a2ae	-0.026322689
218	0xbaa923f2	-0.0012904389
219	0xbbee870d	-0.007279283
220	0xbc27227f	-0.010201096
221	0x3e51aa0b	0.20475022
222	0x3c92409f	0.01785308
223	0xbd5cb933	-0.053887557
224	0xbd15e05d	-0.036590923
225	0x3d4546c3	0.048163187
226	0xbdcf6abf	-0.10127782
227	0xbdc927f2	-0.09822072
228	0xbe013090	-0.12616181
229	0xbd937269	-0.071995564
230	0xbd5c3fc2	-0.05377174
231	0x3db1b9b1	0.08677996
232	0x3d6fd888	0.05855611
233	0x3df6c4e2	0.12049271
234	0x3c15f73f	0.009153186
235	0x3d389e58	0.045072883
236	0x3e2f73e6	0.17134055
237	0xbdd288c8	-0.10279995
238	0xbdc44a78	-0.09584516
239	0x3d9e4532	0.07728042
240	0x3ce95a0f	0.028485326
241	0x3d672d86	0.0564399
242	0xbd6cbc6a	-0.057796873
243	0x3d4ca9bb	0.049966555
244	0x3e983a76	0.29732102
245	0xbe8bea3f	-0.27327153
246	0x3db14231	0.08655203
247	0xbe7e7807	-0.24850474
248	0xbbe14fb5	-0.006875957
249	0x3c8e309b	0.017357161
250	0xbd417a3d	-0.047235716
251	0x3c870409	0.016481416
252	0x3d9fbdb5	0.077998556
253	0xba2f425a	-0.00066856074
254	0x3c30f965	0.010801648
255	0x3c8b36d7	0.016993923

encoder.coeff_nets.0.0.0.bias f4 [50]
0	0x3dea1a69	0.114308186
1	0xbe1353e9	-0.14387478
2	0x3cd581be	0.026062842
3	0xbe53888a	-0.20657554
4	0x3c06845e	0.00821027
5	0x3e861336	0.26186532
6	0x3e195c44	0.14976603
7	0xbe8224a1	-0.2541857
8	0x3dbbdb98	0.091727436
9	0xbd9eb3f1	-0.07749165
10	0x3e1dc32a	0.1540648
11	0x3d8a2122	0.06744601
12	0x3e09d7dd	0.13461252
13	0xbdc335e9	-0.09531767
14	0x3e940218	0.28907847
15	0x3ea788aa	0.32721454
16	0x3e4dd7c6	0.20101842
17	0xbd95861b	-0.07300969
18	0xbd4c590c	-0.04988961
19	0x3e53c993	0.20682363
20	0x3ea66ca8	0.32504773
21	0x3cb1f088	0.02172114
22	0x3c6b9977	0.014379851
23	0x3e1aaf4f	0.15105937
24	0x3debbfa3	0.11511161
25	0xbded04f5	-0.11573211
26	0xbe3b1cd4	-0.18272716
27	0x3e8f599b	0.2799805
28	0xbd56fc03	-0.05248643
29	0x3e307616	0.17232546
30	0x3e5d9cf6	0.21641907
31	0x3d2afbd7	0.04174408
32	0x3d644cbb	0.05573724
33	0x3e636358	0.22205865
34	0x3db65ece	0.08904801
35	0x3d8ed610	0.06974423
36	0xbde69736	-0.1125931
37	0x3e26e902	0.16299823
38	0xbe1c9a00	-0.15293121
39	0x3ed03346	0.4066412
40	0xbdfb624d	-0.12274609
41	0x3e70757c	0.23482317
42	0x3db55377	0.0885381
43	0x3d440e0f	0.04786497
44	0x3ec949bb	0.39314064
45	0x3e5885a7	0.21144734
46	0x3e1b1bb5	0.15147288
47	0x3e93fa80	0.28902054
48	0xbe664fd9	-0.22491397
49	0x3ed0ca30	0.40779257

encoder.coeff_nets.0.1.weight f4 [50, 50]
0	0xbd406559	-0.046971653
1	0xbd88c873	-0.06678858
2	0x3d39454e	0.04523211
3	0x3db929c5	0.0904117
4	0xbe0cb769	-0.1374184
5	0xbd1ef7ac	-0.038810417
6	0x3d4d8ce7	0.050183203
7	0x3ac222bc	0.0014811377
8	0x3d9662b4	0.07343045
9	0xbd6db69c	-0.058035478
10	0xbda422f9	-0.08014483
11	0x3dcabf52	0.09899773
12	0x3d81d021	0.063385256
13	0x3dc55652	0.09635605
14	0xbdbfda16	-0.093677685
15	0xbdbcfd71	-0.092280276
16	0xbd0d04ce	-0.03442841
17	0xbe0b815c	-0.13623565
18	0x3d1dde01	0.038541798
19	0x3d94b8a3	0.07261779
20	0x3b63d9de	0.003476731
21	0xbbd12daf	-0.0063836197
22	0x3ce2af59	0.027671503
23	0xbdce009b	-0.10058709
24	0x3df1eb3f	0.11812448
25	0xbe164054	-0.14672977
26	0xbe2556c3	-0.16146378
27	0xbd59407b	-0.05304001
28	0x3db81518	0.08988398
29	0xbb9d4f92	-0.0048007453
30	0x3d1fe607	0.03903773
31	0xbe0346c3	-0.12819962
32	0x3c2ed9d9	0.010672056
33	0xbca7b8d7	-0.02047388
34	0x3cf0d57e	0.029398676
35	0x3db2dcbf	0.0873351
36	0x3d4e9423	0.050434243
37	0xba23282c	-0.00062239426
38	0xbd25f226	-0.040514134
39	0xbe031804	-0.1280213
40	0xbd62a94b	-0.05533723
41	0x3d66612d	0.056245018
42	0xbd55a1a1	-0.052156094
43	0x3d5327d2	0.051551647
44	0xbd88c7a8	-0.066787064
45	0xbd75aa82	-0.059977062
46	0xbc4b1924	-0.012396131
47	0xbe1ec961	-0.15506507
48	0xbc99695b	-0.018726995
49	0xbcf73a02	-0.030179027
50	0xbc943613	-0.01809219
51	0x3c97901e	0.018501338
52	0x3bec1b7d	0.0072054253
53	0x3e0ad5ba	0.13558093
54	0xbbe7cf0f	-0.007074244
55	0x3d1d7d80	0.038449764
56	0x3dd0c358	0.10193509
57	0x3d89ca9b	0.06728097
58	0xbcabd540	-0.020975709
59	0xbb4be2e9	-0.003111059
60	0x3dfada79	0.122487016
61	0x3d650a63	0.05591811
62	0x3ce0a536	0.027422529
63	0x3c168a30	0.00918822
64	0xbddfadc4	-0.10921815
65	0x3d08ce70	0.0334
66	0xb9c2fb9e	-0.00037190033
67	0x3cd9e53c	0.026598565
68	0xbd36b371	-0.044604722
69	0x3c91963b	0.01777183
70	0x3db8a256	0.09015338
71	0x3d551c9a	0.05202923
72	0x3c9b43c0	0.018953204
73	0xba189b4f	-0.00058214826
74	0xbd8d7a96	-0.06908147
75	0xbd812dc6	-0.06307559
76	0xbbdd0083	-0.006744446
77	0x3cbc0891	0.022953304
78	0x3c64fd88	0.013976462
79	0xbd30320e	-0.043016486
80	0x3d32ee58	0.043684334
81	0x3cfb8cd7	0.030706806
82	0x3d823d0e	0.063593015
83	0x3d8d5ba7	0.06902247
84	0x3d44fade	0.048090808
85	0x3a6d8fb1	0.0009062244
86	0x3d0d94a6	0.03456559
87	0xbd530e8b	-0.05152754
88	0x3c1d5390	0.009602442
89	0x3dc71bb4	0.09722081
90	0xbcbe94b4	-0.023264267
91	0x3d563aae	0.052302055
92	0x3d884578	0.06653875
93	0x3da2cb9a	0.0794899
94	0xbcbab1a2	-0.02278978
95	0x3b465292	0.0030261618
96	0xbc3bae3b	-0.011455114
97	0xbcf348e9	-0.029697852
98	0x3c61180a	0.0137386415
99	0xbdc38c74	-0.09548274
100	0x3d9e6609	0.077343054
101	0xbe0771d6	-0.13227019
102	0xbe0b4aff	-0.13602827
103	0xbc01e0f4	-0.007927168
104	0x3dab7392	0.08371653
105	0xbe0c791e	-0.13718078
106	0xbcf7594d	-0.03019395
107	0x3dd9da8d	0.106373884
108	0xbb8c0f85	-0.004274311
109	0x3d3d78c7	0.04625776
110	0xbe2492a5	-0.16071565
111	0xbd803823	-0.06260707
112	0xbd88d3e8	-0.06681043
113	0x3dc63a45	0.09679083
114	0x3cb30e68	0.021857455
115	0xbddda69c	-0.10822794
116	0x3b3d9d3d	0.0028932833
117	0xbca4b888	-0.020107523
118	0xbd82a0cb	-0.06378325
119	0xbdc34536	-0.09534685
120	0xbd6c6b77	-0.057719674
121	0x3dd23c9a	0.10265465
122	0xbdfe6ebe	-0.12423466
123	0xbe0f1297	-0.13971935
124	0xbd990ec2	-0.07473518
125	0xbc727f05	-0.014800792
126	0x3c498ef6	0.012302151
127	0xbcc619a6	-0.024182152
128	0xbd4c2f61	-0.04984987
129	0xbdc434f7	-0.09580415
130	0xbd16cb4a	-0.036814965
131	0xbd6a1e32	-0.057157703
132	0x3da171ad	0.0788301
133	0xbe365928	-0.17807448
134	0xbdd09b14	-0.10185829
135	0xbe06d72b	-0.13168018
136	0xbd25044f	-0.040287312
137	0x3db164ef	0.0866183
138	0x3dd8cf8a	0.1058646
139	0xbde9f6ad	-0.11424003
140	0xbcf67a90	-0.03008774
141	0x3d925edd	0.07147
142	0x3d3dc448	0.046329767
143	0x3dc94d12	0.09829153
144	0xbc08d79a	-0.008352185
145	0xbddd91dd	-0.10818837
146	0x3db5255c	0.08845016
147	0xbc8b2711	-0.016986402
148	0x3d4bf74a	0.04979638
149	0xbd862b21	-0.06551195
150	0x3d8c3906	0.06846814
151	0x3deb364c	0.11484966
152	0x3da09901	0.07841683
153	0xbe04c2d0	-0.1296494
154	0xbda057cf	-0.07829248
155	0xbd26853f	-0.040654417
156	0xbdabc83b	-0.083878
157	0x3d9ed70c	0.07755861
158	0xbd1b0aed	-0.037852217
159	0xbd91a09a	-0.071107104
160	0xbd814e13	-0.063137196
161	0xbdaff7ab	-0.08592161
162	0x3ce0802c	0.027404867
163	0xbdd804d2	-0.105477944
164	0xbe10a85b	-0.14126723
165	0xbe1ac354	-0.15113574
166	0x3d3c872f	0.04602736
167	0x3d7dbff2	0.06195063
168	0xbdc08ada	-0.09401484
169	0x3c8765ea	0.016528089
170	0x3d85b468	0.065285504
171	0xbc64e649	-0.01397092
172	0xbd11b025	-0.035568375
173	0x3bf66cdc	0.0075203013
174	0xbcb03723	-0.021510666
175	0x3d7b43a5	0.061343808
176	0xbdeed9b6	-0.11662619
177	0x3d238413	0.039920878
178	0x3da38bd2	0.07985653
179	0xbd9b3f37	-0.07580417
180	0x3dc05d87	0.09392839
181	0x3db4e964	0.08833578
182	0xbda29221	-0.07938028
183	0xbd971b7c	-0.07378289
184	0x3d39a125	0.045319695
185	0xbe0258c0	-0.12729168
186	0x3d27b68e	0.040945582
187	0x3cb5a668	0.022174075
188	0x3d609f17	0.05483922
189	0xbe08c27b	-0.13355438
190	0xbe045c1f	-0.12925766
191	0x3d067c5a	0.032833435
192	0x3cda7df2	0.026671384
193	0xbe0d9c2d	-0.13829108
194	0xbd9d1381	-0.07669736
195	0xbdfed8bc	-0.124436826
196	0xbdeafe0b	-0.11474236
197	0xbd536fe4	-0.05162038
198	0x3dac44a8	0.08411533
199	0xbd9a07f8	-0.07521051
200	0x3d2c7995	0.042108137
201	0x3db3f1e5	0.08786372
202	0x3d2cd7ed	0.04219811
203	0xbe1157c5	-0.14193638
204	0x3d218a67	0.03943863
205	0x3c4b7238	0.012417369
206	0x3cececca	0.028921504
207	0xbe391e1b	-0.1807789
208	0x3da016f6	0.078168795
209	0x3db28eb7	0.08718627
210	0xbe1be8b5	-0.1522549
211	0xbacfc3fb	-0.0015851253
212	0x3da485f5	0.08033363
213	0xbe02c290	-0.12769532
214	0x3bcca0fa	0.006244776
215	0x3d273625	0.04082312
216	0x3bd57d79	0.0065152016
217	0x3dde313e	0.10849236
218	0x3d9c9650	0.07645857
219	0x3db69216	0.089145824
220	0xbd9c9521	-0.076456316
221	0x3d368bfb	0.04456709
222	0xbe22c605	-0.15895851
223	0xbdc96686	-0.09834008
224	0xbd4d860b	-0.05017666
225	0xbd98ad5e	-0.07454942
226	0x3dbe5e13	0.09295287
227	0x3d2e56c8	0.04256323
228	0x3d898259	0.06714315
229	0x3d85e21e	0.06537269
230	0xbdf90457	-0.12159031
231	0xbd685a19	-0.05672655
232	0xbcaefe2f	-0.021361439
233	0xbbd4e87e	-0.006497442
234	0x3d3b3753	0.04570706
235	0xbda699e0	-0.08134818
236	0xbd9d885d	-0.07692025
237	0x3dac5336	0.08414309
238	0xbc8cca3b	-0.017186275
239	0xbe0dfdb7	-0.13866316
240	0x3d804177	0.062624864
241	0x3d87422c	0.06604418
242	0xbd816959	-0.063189216
243	0xbd8bcebe	-0.06826542
244	0xbe0c4639	-0.13698663
245	0xbe046559	-0.12929286
246	0x3d12b2ab	0.035814922
247	0xbdbfd343	-0.09366467
248	0x3d98c782	0.07459928
249	0xbe14e453	-0.14540224
250	0xbdacdf05	-0.08440975
251	0x3c344890	0.011003628
252	0x3d928212	0.07153715
253	0x3da48a44	0.080341846
254	0x3bd78f56	0.0065783663
255	0x3ce77e61	0.028258504

encoder.coeff_nets.0.1.bias f4 [50]
0	0x3d88f65b	0.066876136
1	0x3d86722c	0.06564745
2	0xbbf05dba	-0.007335392
3	0xbcfa9f1b	-0.030593446
4	0xbe11f6eb	-0.14254348
5	0xbda4a4ab	-0.080392204
6	0x3e09e718	0.13467062
7	0x3d203a14	0.039117888
8	0xbdf2185c	-0.118210524
9	0xbe39e75f	-0.18154667
10	0xbc93b10f	-0.018028764
11	0xbe223907	-0.15842067
12	0xbdde7b5e	-0.10863374
13	0x3dd1b58d	0.10239706
14	0x3cfdbbac	0.030973278
15	0x3d4e22e3	0.05032624
16	0xbb33058b	-0.0027316536
17	0xbe14a86a	-0.1451737
18	0x3de28ae1	0.11061645
19	0xbe17769d	-0.14791341
20	0x3c2b8f5a	0.010471189
21	0x3e275118	0.16339529
22	0xbd7e001f	-0.062011834
23	0x3dde0654	0.10841051
24	0xbe0a263c	-0.13491148
25	0xbd94edda	-0.07271929
26	0x3de9ada4	0.114100724
27	0xbe184801	-0.14871217
28	0x3e35b0f7	0.17743288
29	0x3e33fc28	0.17576659
30	0xbc595f01	-0.01326728
31	0x3db583ff	0.08863067
32	0x3d89b6e0	0.06724334
33	0x3deb0d69	0.11477167
34	0xbe133244	-0.14374644
35	0x3dcec674	0.10096446
36	0x3b9b6a99	0.004742932
37	0xbe25a7b0	-0.16177249
38	0x3d0a3e1a	0.03375063
39	0xbd7cc4eb	-0.061711233
40	0x3da7170b	0.08158692
41	0x3c786712	0.015161293
42	0x3e81937f	0.25307843
43	0x3d3488f6	0.04407593
44	0x3e80ba46	0.25142115
45	0xbdade006	-0.08489995
46	0xbc4d9432	-0.01254754
47	0xbc78c1e4	-0.015182946
48	0x3e3a0d2d	0.18169089
49	0x3e102669	0.14077152

encoder.coeff_nets.0.3.weight f4 [400, 50]
0	0xbdec15a8	-0.11527568
1	0x3d7f31a7	0.06230321
2	0xbda2897d	-0.0793638
3	0x3e05a625	0.1305166
4	0x3df008bb	0.11720415
5	0x3d4d7ecf	0.050169762
6	0x3e0e480d	0.13894673
7	0x3dd65d21	0.10466982
8	0xbde80af5	-0.11330215
9	0x3bd8bfa1	0.006614641
10	0xbb9e0424	-0.004822271
11	0xbd86c3ce	-0.065803155
12	0x3d674691	0.05646378
13	0xbcc48ace	-0.023991968
14	0xbd54de01	-0.051969532
15	0x3cb276ac	0.021785103
16	0xbd99bae0	-0.07506347
17	0x3e0993ed	0.13435335
18	0x3dca6fb5	0.09884588
19	0x3e17e20d	0.14832325
20	0x3d468bde	0.04847323
21	0x3d341fbd	0.04397558
22	0x3b64161b	0.0034803215
23	0xbdc1299f	-0.09431767
24	0x3da4e0e6	0.080507085
25	0xbd8b7e24	-0.06811169
26	0xbd1bc04e	-0.038025193
27	0xbd2e87b5	-0.04260989
28	0xbdcdb120	-0.100435495
29	0x3dbcfb4d	0.09227619
30	0x3b486f82	0.0030584042
31	0x3c8b0b27	0.016973091
32	0x3e12e348	0.14344513
33	0x3ad3ddb5	0.0016164096
34	0xbbb28342	-0.005447776
35	0xbd830c49	-0.063988276
36	0xbd7a3388	-0.0610843
37	0x3bc1f1d6	0.0059187217
38	0xbd7d4f20	-0.061843038
39	0xbd991c31	-0.0747608
40	0x3bb385b5	0.0054785856
41	0x3dc1df57	0.09466427
42	0xbce814f8	-0.028330311
43	0x3dd35b81	0.10320187
44	0x3e399822	0.1812444
45	0xbdb0a182	-0.08624555
46	0xbd8cac99	-0.06868858
47	0xbd43707f	-0.047714707
48	0x3d6f2201	0.058382038
49	0x3e32944e	0.17439386
50	0x3d630f83	0.055434715
51	0xbcc5d3f6	-0.024148922
52	0x3db6b462	0.08921124
53	0xbd0a231a	-0.03372488
54	0xbda82d8b	-0.08211812
55	0xbdce8159	-0.10083265
56	0x3dc91f28	0.09820396
57	0xbd27f1a3	-0.041001927
58	0x3dbe6463	0.09296491
59	0x3da28278	0.07935041
60	0xbd47fa04	-0.048822418
61	0x3c9396db	0.01801627
62	0xbca007f1	-0.019535037
63	0x3e092116	0.13391528
64	0xbd8b1f6d	-0.06793103
65	0x3d828827	0.06373625
66	0x3d1550fa	0.03645418
67	0x3dbf5f1c	0.093443125
68	0xbe172b07	-0.14762507
69	0x3c60adb0	0.013713285
70	0x3c595f47	0.013267345
71	0x3de3b05a	0.11117621
72	0xbceba6bc	-0.028766029
73	0x3dc25155	0.09488169
74	0xbdee8f49	-0.11648423
75	0xbc114e91	-0.008868829
76	0x3d1e03ae	0.038577728
77	0x3dce699a	0.10078736
78	0x3d9d9d7d	0.07696054
79	0xbdfd9b6e	-0.123831615
80	0x3c962fbd	0.01833331
81	0xbcfd5512	-0.030924354
82	0xbd5e9a6f	-0.054346498
83	0x3d821935	0.06352464
84	0x3dcc97a8	0.09989864
85	0x3d6f4300	0.058413506
86	0x3d3cb6a4	0.046072617
87	0x3da03a01	0.07823563
88	0x3d2aaf5c	0.041671142
89	0x3d1829d4	0.037149265
90	0x3cace345	0.021104464
91	0xbe3f7551	-0.18697096
92	0x3daf2d89	0.08553607
93	0xbd632523	-0.05545534
94	0xbd9a5331	-0.07535399
95	0x3d8c37b3	0.06846561
96	0x3d9a199e	0.07524417
97	0xbca8d078	-0.020607218
98	0x3d4b8fe7	0.049697783
99	0x3cae5eb2	0.021285389
100	0x3cd7bc45	0.026334891
101	0x3d675e26	0.05648627
102	0xbd88f872	-0.06688012
103	0xbdc67fc7	-0.0969234
104	0x3dc95ff3	0.09832754
105	0xbd89bf9b	-0.06725999
106	0x3d342b76	0.04398676
107	0xbd125d37	-0.035733428
108	0xbdf1fb80	-0.11815548
109	0x3dbc313f	0.091890804
110	0xbd0a0d4a	-0.03370408
111	0x3df61400	0.120155334
112	0x3d05a2fb	0.032626133
113	0xbe20028b	-0.1562597
114	0x3c5d5044	0.013507906
115	0x3d04bd5e	0.032407157
116	0xbd7bd384	-0.061481014
117	0x3db5e817	0.08882158
118	0xbd3e8350	-0.046511948
119	0xbd49bfc2	-0.04925514
120	0x39901a69	0.00027485497
121	0xbcbfb0fa	-0.023399819
122	0x3d86065c	0.06544182
123	0xbde145af	-0.10999619
124	0xbe0602dd	-0.1308703
125	0xbda4964e	-0.08036481
126	0xbd4eb7f5	-0.050468404
127	0x3d86c388	0.065802634
128	0xb94d0a43	-0.00019554146
129	0xbca8bec3	-0.020598775
130	0x3daf880c	0.08570871
131	0x3d80d360	0.062903166
132	0xbda6cb04	-0.08144191
133	0x3c482192	0.012215035
134	0xbc05d095	-0.008167406
135	0xbc5b3fe4	-0.013381932
136	0xbbdd701f	-0.0067577506
137	0x3ca4f6a1	0.020137133
138	0x3d8fab89	0.070151396
139	0xbd4511ee	-0.048112802
140	0x3d2776e6	0.040884875
141	0xbd3204d3	-0.043461632
142	0x3c0feca1	0.008784444
143	0x3d09f16f	0.033677515
144	0xbc1b1bfe	-0.009467123
145	0xbd30f55d	-0.043202747
146	0xbc433547	-0.011914558
147	0xbdcd74c3	-0.10032036
148	0x3c988bbd	0.01862132
149	0xbcefb36a	-0.029260356
150	0x3da50e74	0.08059397
151	0xbdba701e	-0.09103416
152	0xbd151b10	-0.036402762
153	0x3d784ba8	0.060619026
154	0xbd4410c5	-0.047867555
155	0x3cefd012	0.02927402
156	0x3de49f2b	0.111631714
157	0xbcbe0e4c	-0.023200177
158	0x3c4f02d4	0.012634952
159	0xbd026fcf	-0.03184491
160	0xbd440489	-0.047855888
161	0x3d6d7ed2	0.057982273
162	0xbbf9c81c	-0.007622732
163	0x3d292184	0.04129173
164	0x3da1e946	0.079058215
165	0xbd69b531	-0.057057563
166	0xbbfde3d8	-0.0077481084
167	0xbd0df20f	-0.034654673
168	0xbdbda2bb	-0.09259554
169	0xbdb920f6	-0.0903949
170	0x3ca15410	0.019693404
171	0x3d126e91	0.035749976
172	0xbdc3eb27	-0.09566336
173	0xbdba7111	-0.09103597
174	0x3d9e6162	0.07733418
175	0x3cc1b000	0.023643494
176	0xbdbcefae	-0.09225403
177	0xbce671bd	-0.028130407
178	0xbd01aedc	-0.0316609
179	0xbbd736b2	-0.0065677995
180	0xbb57846b	-0.0032885324
181	0x3d272227	0.040804055
182	0xbc1b8534	-0.009492207
183	0x3d76f164	0.0602888
184	0xbde83152	-0.11337532
185	0xbd34a9d3	-0.04410727
186	0x3bed41bc	0.007240502
187	0xbdb6b6a6	-0.08921556
188	0x3dd0771e	0.1017897
189	0x3df25224	0.11832073
190	0x3d7ddfe1	0.061981086
191	0xbb6cc1ec	-0.0036126329
192	0x3dc14e80	0.09438801
193	0x3b9a05c7	0.0047003957
194	0xbbe8f342	-0.0071090767
195	0xb9589288	-0.00020653952
196	0xbce90395	-0.02844409
197	0x3d872434	0.06598702
198	0xbd7caaef	-0.061686452
199	0x3d0a600f	0.033783015
200	0xbc7da625	-0.0154815065
201	0xbc10e194	-0.0088428445
202	0xbdc0a632	-0.09406699
203	0xbdb02e49	-0.08602578
204	0xbd9ce848	-0.07661492
205	0x3db4c9be	0.08827542
206	0xbcf14b66	-0.029454898
207	0x3d180324	0.03711237
208	0x3d4f6969	0.050637636
209	0x3d8cd057	0.06875675
210	0xbc98d93a	-0.01865827
211	0xbcfd3f3a	-0.030913938
212	0xbc1a2a89	-0.009409555
213	0xbd5e2432	-0.054233737
214	0x3e12e4cf	0.14345096
215	0x3c48dbe8	0.012259461
216	0xbd3659af	-0.044519123
217	0xbdebd0d3	-0.115144394
218	0x3c90ccc9	0.017675774
219	0xbdfb7065	-0.12277297
220	0xbca586f0	-0.020205945
221	0x3d691cb8	0.056912154
222	0xbdbf3e4f	-0.09338056
223	0x3dc3d7ef	0.095626704
224	0xbce86386	-0.028367769
225	0xbdc014a3	-0.09378936
226	0xbdd9ca56	-0.10634296
227	0x3da71be1	0.08159614
228	0xbdb6de98	-0.08929175
229	0x3d97cd6b	0.07412227
230	0xbd762502	-0.060093887
231	0x3dc970c1	0.09835959
232	0xbd16adf8	-0.036787003
233	0x3ccfe855	0.02537934
234	0xbdfff24a	-0.12497385
235	0xbde23e42	-0.11047031
236	0x3dcd4e26	0.10024671
237	0x3cbea586	0.023272287
238	0xbd401f18	-0.046904653
239	0xbc293222	-0.010326894
240	0xbd96abe3	-0.073570035
241	0xbb60780f	-0.0034251248
242	0x3cbbb66b	0.022914132
243	0x3c6fe7a6	0.014642632
244	0x3cc4b320	0.024011195
245	0xbd3b4e62	-0.04572905
246	0xbc0486e2	-0.008088799
247	0x3e057fa7	0.13036977
248	0x3c54317f	0.012951254
249	0x3dc13823	0.09434535
250	0xbd08bb91	-0.033382002
251	0xbc1ffc3f	-0.00976473
252	0x3ceec3fb	0.029146185
253	0x3dbe4e97	0.092923336
254	0x3d773dba	0.0603616
255	0xbc94fadd	-0.018186027

encoder.coeff_nets.0.3.bias f4 [400]
0	0x3dd0cc36	0.101952
1	0xbca9d449	-0.020731108
2	0x3d325d8f	0.043546256
3	0xbcbb4e2e	-0.022864427
4	0x3c5dab1e	0.013529567
5	0x3dd860b4	0.1056532
6	0xbc87ff0e	-0.016601112
7	0x3dd0ae83	0.101895355
8	0x3d812296	0.06305425
9	0x3d73d114	0.059525564
10	0x3b069110	0.0020533241
11	0x3dd54e70	0.104153514
12	0xbd50ef7a	-0.051009633
13	0x3cdb41ff	0.026764868
14	0x3d70b30f	0.058764514
15	0xbd133b18	-0.035945028
16	0x3d85aa80	0.06526661
17	0xbd3b35ba	-0.045705535
18	0x3db01282	0.0859728
19	0x3e28fa6c	0.16501778
20	0x3db26bf5	0.087119974
21	0x3ddb71ac	0.107150406
22	0x3ccc34a2	0.024927441
23	0x3ccdb445	0.025110373
24	0x3b68fcb8	0.0035551023
25	0x3d83a6c8	0.064282954
26	0x3cfff082	0.031242613
27	0x3d931a46	0.07182746
28	0x3d4664b4	0.04843588
29	0x3cc58a42	0.024113778
30	0x3895b64d	7.13883e-05
31	0x3d89fef1	0.06738079
32	0xbc25e0b7	-0.010124377
33	0x3d8e1787	0.06938081
34	0x3d0f3ea0	0.034971833
35	0x3d965bd2	0.07341732
36	0x3b55c6ff	0.0032619832
37	0x3dd094cb	0.1018463
38	0x3d0344a3	0.03204788
39	0xbe0b2e8c	-0.13591975
40	0x3dbd266e	0.092358455
41	0x3d8520d5	0.06500403
42	0xbb0f74b5	-0.0021889631
43	0xbc870c7e	-0.016485449
44	0x3c0e7c23	0.008696589
45	0xbc90e546	-0.017687451
46	0xbd0e5198	-0.034745783
47	0x3df5e76a	0.12007029
48	0x3d6c7019	0.057724092
49	0x3d3825f2	0.044958062
50	0x3d36d6fc	0.04463862
51	0x3d861333	0.06546631
52	0xbb265125	-0.0025377956
53	0xbc7e9de0	-0.01554057
54	0xbcbb3f54	-0.022857346
55	0xbadfc39e	-0.0017071848
56	0xbb61ce9a	-0.003445542
57	0x3d3c70fd	0.04600619
58	0x3cbd231d	0.023088032
59	0x3dcb7132	0.099337
60	0xbc015568	-0.007893898
61	0xbd7bfd45	-0.061520834
62	0x3dc50270	0.096196055
63	0x3e8b6577	0.2722585
64	0x3d242fa0	0.04008448
65	0x3cbec73d	0.023288364
66	0x3d3094b6	0.04311057
67	0x3d0adda9	0.033902798
68	0x3d886961	0.066607244
69	0x3cd017cb	0.02540197
70	0x3d43f13a	0.047837473
71	0x3d5cbf85	0.053893585
72	0x3ce0ea34	0.027455427
73	0xbcd12ecc	-0.02553501
74	0x3b25689c	0.0025239354
75	0xbccf0ebc	-0.02527558
76	0x3d0fff83	0.035155784
77	0x3d4db8e8	0.05022517
78	0x3d8d4b68	0.06899148
79	0x3da4316f	0.08017241
80	0x3d5e0316	0.05420216
81	0x3c9efa17	0.019406362
82	0xbcef1e06	-0.029189121
83	0x3da65264	0.081211835
84	0x3e6d91a5	0.2320009
85	0x3d916d74	0.07100955
86	0x3d07acf8	0.03312394
87	0xbcae685f	-0.021290002
88	0x3d5bc295	0.053652365
89	0x3d9becf0	0.076135516
90	0x3d8c43cf	0.06848871
91	0x3af00102	0.0018310847
92	0x3da69c51	0.08135284
93	0x3d107bae	0.0352742
94	0xbba1137c	-0.004915653
95	0xbb2e1d76	-0.0026567853
96	0x3b7d661d	0.00386656
97	0x3d819cbf	0.06328725
98	0x3d7ce2f6	0.061739884
99	0x3b1b8150	0.00237282
100	0x3c9d61c8	0.019211665
101	0xbc9e626e	-0.019334044
102	0x3db3079a	0.08741684
103	0xbd376d53	-0.044781994
104	0x3d9b0a85	0.07570366
105	0x3e45e01d	0.19323774
106	0x3c67b151	0.014141397
107	0xbd5b2246	-0.053499483
108	0xbd0a58b9	-0.03377602
109	0x3d7346fe	0.059393875
110	0x3d522613	0.05130584
111	0x3dd49645	0.10380224
112	0x3d5c78b3	0.053826045
113	0x3dabc0f8	0.08386415
114	0x3c8886f9	0.016665922
115	0x3dbd9ed8	0.09258813
116	0xbcf84a56	-0.030308884
117	0x3e002312	0.12513378
118	0xba8a3271	-0.0010543597
119	0x3d894ae6	0.06703739
120	0xbc0746aa	-0.008256594
121	0x3bf0be3d	0.007346897
122	0x3d9331c9	0.0718723
123	0x3c97cdc9	0.018530743
124	0x3c87f728	0.016597345
125	0x3dadbf33	0.08483734
126	0x3e399bba	0.18125811
127	0xbc2e39eb	-0.010633926
128	0x3cbaebb1	0.022817465
129	0x3d83f959	0.06444044
130	0x3e05743f	0.13032626
131	0x3db302b9	0.08740754
132	0x3c763f3a	0.015029723
133	0x3d23a93f	0.039956328
134	0xbcaa5cf3	-0.020796275
135	0x3d634c67	0.055492785
136	0xbd237085	-0.03990223
137	0xbd0934c4	-0.033497587
138	0x3da4981c	0.08036825
139	0xbc34b3e9	-0.011029222
140	0xbcbaccc6	-0.022802722
141	0x3d83d848	0.06437737
142	0x3da54af1	0.080709346
143	0x3d95e40a	0.073188856
144	0x3c7b8146	0.015350645
145	0xbd638121	-0.05554307
146	0x3a33785d	0.00068462436
147	0x3dc77e33	0.097408675
148	0x3d05932e	0.032611065
149	0x3c8f5f1b	0.017501405
150	0x3d2f7067	0.042831805
151	0x3d947032	0.07247962
152	0x3cafd104	0.021461971
153	0x3dbe912e	0.093050346
154	0x3cb1bd8e	0.021696832
155	0x3da90ce0	0.08254409
156	0xbcc1d7c7	-0.023662461
157	0x3cabc5a4	0.020968266
158	0x3caf5200	0.021401405
159	0xbc79bddc	-0.01524302
160	0x3d49cee4	0.049269572
161	0x3d8870ab	0.06662115
162	0x3ddf8b9c	0.109153
163	0xbd4db318	-0.050219625
164	0x3cf1fd97	0.029539866
165	0xbcc72526	-0.024309706
166	0x3d9fe525	0.07807378
167	0x3e04b109	0.12958159
168	0xbce95bfc	-0.028486244
169	0xbd577483	-0.05260135
170	0xbda3730d	-0.079809286
171	0x3c8ef698	0.01745157
172	0x3ce55062	0.027992431
173	0x3dcd31b0	0.10019243
174	0x3d15b7df	0.036552306
175	0x3db52ef6	0.08846848
176	0xbb6a320f	-0.0035735404
177	0xbbec59c6	-0.0072128503
178	0x3d13ee1d	0.036115754
179	0x3ddfbc03	0.10924532
180	0x3d716009	0.058929477
181	0xbb475327	-0.0030414553
182	0x3c7f9d9a	0.01560154
183	0x3c692664	0.014230344
184	0x3d566b7f	0.05234861
185	0x3c153809	0.009107598
186	0x3b71d29b	0.0036899212
187	0x3c425c5e	0.011862842
188	0x3da34032	0.07971229
189	0x3e5d07c1	0.21584989
190	0x3d327795	0.043571074
191	0xbd7300bf	-0.059326883
192	0x3c54f588	0.012997992
193	0xbc82a692	-0.015948568
194	0x3d544c66	0.05183067
195	0x3d9bb27c	0.076024026
196	0x3d073e33	0.033018302
197	0x3d763f51	0.060118977
198	0x3d569a45	0.052393217
199	0x3d87df3f	0.06634378
200	0xbcc20e51	-0.023688467
201	0x3cc0ee16	0.023551028
202	0x3b94ac12	0.004537114
203	0xbce900ea	-0.028442819
204	0x3cbe590c	0.02323582
205	0x3dcadb2d	0.09905086
206	0x3c40ba34	0.011763144
207	0x3db45dad	0.0880693
208	0x3b83b7cb	0.0040197126
209	0x3d1cc25e	0.0382713
210	0x3e4cd787	0.20004092
211	0xbbfd3763	-0.00772755
212	0x3d351262	0.044206984
213	0x3cc15271	0.023598881
214	0xbb3a2040	-0.002840057
215	0x3b882589	0.004154865
216	0x3d7e9e10	0.06216246
217	0x3dd16cdc	0.102258414
218	0x3c26a920	0.0101721585
219	0x3d903fd3	0.070434235
220	0x3de1870f	0.110120885
221	0x3cab9622	0.020945612
222	0x3ddf9cef	0.109186046
223	0xbc864fc2	-0.016395453
224	0x3d00cf7b	0.03144787
225	0x3df49ae3	0.11943605
226	0x3d4500ff	0.048096653
227	0x3dc1ef3a	0.09469457
228	0x3d61484f	0.0550006
229	0x3d03b75f	0.0321573
230	0x3cbd063d	0.023074264
231	0x3d0bedd9	0.034162376
232	0xbd619728	-0.055075794
233	0x3dc2094e	0.09474431
234	0xbd06fbcb	-0.032954972
235	0x3de51670	0.1118592
236	0x3d7f4957	0.0623258
237	0x3dd14bc0	0.10219526
238	0x3cada5a9	0.021197157
239	0x3c49beae	0.012313528
240	0xbcb692b3	-0.022286749
241	0x3de4a31e	0.11163925
242	0x3bfe3cb6	0.007758702
243	0x3dc920ff	0.09820747
244	0xbc74a7b9	-0.014932566
245	0x3dfc0a54	0.123066574
246	0x3d9f34ff	0.0777378
247	0x3d936c38	0.071983755
248	0x3d7bef36	0.061507426
249	0xbc8a3a1c	-0.016873412
250	0x3c1c284a	0.00953109
251	0x3d75d2e5	0.060015578
252	0x3dc4ca07	0.09608846
253	0x3d6823bd	0.056674708
254	0x3cc999ac	0.02460941
255	0x39635f85	0.00021683991

decoder.coeff_nets.0.0.0.weight f4 [50, 20]
0	0x3cdbf931	0.026852222
1	0xbb5b0394	-0.003341888
2	0x3e7c8f12	0.24663952
3	0xbe673efa	-0.22582617
4	0xbcb2cd06	-0.021826278
5	0xbe01e0c1	-0.12683393
6	0x3e44404f	0.19165157
7	0xbdd821c5	-0.10553316
8	0x3e178a9f	0.14798974
9	0xbe2f51fe	-0.17121121
10	0x3e6b4122	0.22974065
11	0xbe2c7433	-0.16841201
12	0xbd83e83c	-0.064407796
13	0xbd466eab	-0.048445385
14	0xba38db2e	-0.0007051703
15	0x3dd6ff7b	0.10497948
16	0xbe39bec2	-0.18139175
17	0xbb1131f5	-0.002215502
18	0x3e0d69ab	0.1380984
19	0x3df58c6c	0.11989674
20	0xbda11dc4	-0.078670055
21	0x3c24de05	0.010062699
22	0xbe6fda20	-0.23423052
23	0xbe552570	-0.20815063
24	0xbe204147	-0.15649901
25	0x3de0951c	0.1096594
26	0x3e2b8671	0.16750504
27	0xbde985b0	-0.11402452
28	0x3e23c2e4	0.15992314
29	0xbd6fbbb9	-0.058528636
30	0xbbd82084	-0.006595673
31	0xbe3d5e0a	-0.18492904
32	0xbdbe91da	-0.09305163
33	0xbd8c3f7b	-0.068480454
34	0xbd241bb6	-0.04006549
35	0x3e55b92f	0.20871423
36	0x3e15910a	0.1460611
37	0x3d4c26e0	0.04984176
38	0x3cad890c	0.021183513
39	0x3c18b338	0.009320073
40	0xbceac80c	-0.028659843
41	0x3ded309e	0.115815386
42	0xbe33c026	-0.17553768
43	0xbe21bd9a	-0.15794984
44	0xbe369f9f	-0.17834328
45	0xbdb600c2	-0.08886863
46	0xbdd3f3e1	-0.103492506
47	0xbe55365e	-0.2082152
48	0x3e193903	0.14963154
49	0x3e34d9d5	0.17661221
50	0xbdde4e52	-0.10854782
51	0xbe40d535	-0.18831332
52	0xbcadfded	-0.021239245
53	0x3e49a0cf	0.1969025
54	0x3d279797	0.04091605
55	0xbe127bb8	-0.14305007
56	0xbcf8bc02	-0.030363087
57	0x3e46ebba	0.1942586
58	0x3e4910bf	0.19635294
59	0xbd3cc59f	-0.046086904
60	0xbdb0a181	-0.086245544
61	0xbd20ab29	-0.03922573
62	0xbd2597fa	-0.04042814
63	0x3e3ffa65	0.18747862
64	0xbe1c1a20	-0.15244341
65	0xbe370ba7	-0.17875539
66	0xbd32b1da	-0.043626644
67	0xbe4961da	-0.19666234
68	0x3e5a18bb	0.21298496
69	0xbd8db64f	-0.06919538
70	0x3c33e429	0.010979691
71	0xbe31e4c4	-0.17372423
72	0xbe076c80	-0.13224983
73	0x3e009b7a	0.1255931
74	0xbdae7cac	-0.08519873
75	0xbe2ad5a2	-0.16683057
76	0xbe31e416	-0.17372164
77	0xbe03e625	-0.12880762
78	0x3e06c725	0.13161905
79	0x3dfe8f34	0.124296576
80	0x3d2a105c	0.041519508
81	0x3dcb56d1	0.09928668
82	0x3e4ab87a	0.19796935
83	0x3de72191	0.11285699
84	0x3b12c96a	0.0022397884
85	0x3db3bcf0	0.08776271
86	0x3e61df12	0.22057751
87	0x3dc87134	0.09787217
88	0xbd8692f2	-0.06570996
89	0x3e608e4b	0.2192928
90	0xbcf37bfe	-0.02972221
91	0x3d66498a	0.056222476
92	0xbe090d47	-0.13383971
93	0x3e445ede	0.19176814
94	0x3e61ccb1	0.2205074
95	0x3e3ee411	0.18641688
96	0xbe09e559	-0.13466395
97	0xbe5332b7	-0.20624815
98	0xbe4c8ca6	-0.19975528
99	0x3d876316	0.06610696
100	0x3e505912	0.20346478
101	0xbdcd5131	-0.10025252
102	0xbd6f84c2	-0.058476217
103	0xbd4e95c5	-0.0504358
104	0xbe4dfb6c	-0.20115441
105	0x3e054834	0.13015825
106	0x3c1a99b1	0.009436057
107	0x3e0b171e	0.13583037
108	0xbdb8423f	-0.089970104
109	0xbe025339	-0.1272706
110	0xbe0e6d2f	-0.13908838
111	0xbe57f0b6	-0.21087918
112	0xbe4fb70e	-0.20284674
113	0x3e15b80d	0.14620991
114	0xbdb94475	-0.0904626
115	0x3e018fdc	0.12652534
116	0x3e0977d7	0.13424622
117	0xbd87b601	-0.06626511
118	0xbe042686	-0.1290532
119	0xbe0f8c16	-0.14018282
120	0x3dfa3f8f	0.12219154
121	0x3e43462a	0.19069734
122	0x3d8e0fff	0.06936645
123	0xbdc185b5	-0.09449331
124	0x3e1c7d52	0.15282181
125	0x3e5775d9	0.21041049
126	0xbb3d54de	-0.0028889696
127	0x3d2f1f68	0.04275456
128	0xbb7c8eb6	-0.003853721
129	0xbd1432a3	-0.036181103
130	0x3cdf1cf6	0.02723549
131	0x3e3fc6ad	0.18728133
132	0x3e022c50	0.12712216
133	0x3ce4289e	0.027851399
134	0xbd8725dd	-0.06599019
135	0xbdde1d94	-0.10845485
136	0x3d061d17	0.032742586
137	0xbe3fec08	-0.18742383
138	0xbd2da05d	-0.042389262
139	0x3e525467	0.2054001
140	0xbe21425e	-0.15747973
141	0xbd899205	-0.06717304
142	0xbdf3e877	-0.119095735
143	0xbce7bf3c	-0.02828943
144	0xbcd2fdb1	-0.025755735
145	0xbdc57c57	-0.096428566
146	0xbe177bff	-0.14793395
147	0x3e42bf44	0.19018275
148	0x3d43c499	0.047794912
149	0xbe1d99d0	-0.15390706
150	0xbd186f41	-0.037215475
151	0x3d51a1fa	0.051179864
152	0xbc83a174	-0.016068198
153	0x3d3f50c8	0.0467079
154	0x3d016eda	0.031599857
155	0xbe174501	-0.14772417
156	0x3ce288eb	0.027653178
157	0x3e362556	0.1778768
158	0x3e12e736	0.14346012
159	0xbe129c0e	-0.14317343
160	0xbd93fc7f	-0.07225894
161	0xbdd6844d	-0.10474453
162	0x3d6d0084	0.05786182
163	0xbdac6555	-0.08417765
164	0xbe018c94	-0.12651283
165	0xbdac5679	-0.08414931
166	0x3d0920a4	0.033478394
167	0xbc6b56cb	-0.014363955
168	0xbbc10d7d	-0.0058915005
169	0xbdb49f0c	-0.08819398
170	0x3e014dd0	0.1262734
171	0x3c9ca3ab	0.019121012
172	0x3e4ce3a4	0.20008713
173	0xbe124ac7	-0.14286338
174	0xbe1bbc37	-0.15208517
175	0xbdd422f6	-0.10358231
176	0x3e6ca250	0.23108792
177	0xbd7cfdb2	-0.06176538
178	0xbde5a02a	-0.112121895
179	0x3e5a0724	0.21291786
180	0x3db2cda4	0.08730629
181	0x3da86775	0.08222858
182	0x3e0a544f	0.13508724
183	0xbe0c3bea	-0.1369473
184	0x3d965c64	0.07341841
185	0x3be6ae0e	0.007039792
186	0xbd16bfdd	-0.03680407
187	0x3cc79d95	0.024367133
188	0xbe2519bc	-0.16123098
189	0xbdd16c07	-0.10225683
190	0xbd8f828b	-0.07007321
191	0x3d8efb1e	0.069814906
192	0xbdac13f8	-0.08402246
193	0xbe175d0b	-0.14781587
194	0x3dc5b196	0.096530125
195	0xbdf4ff9c	-0.11962816
196	0x3db47e52	0.08813156
197	0x3e2d0809	0.16897596
198	0xbd1e7401	-0.03868485
199	0x3d080d04	0.033215538
200	0xbd9984c3	-0.074960254
201	0x3e02d2ea	0.1277577
202	0xbda8e06c	-0.0824593
203	0x3e43958f	0.19100021
204	0x3e4a8d20	0.19780397
205	0x3d5c4acc	0.05378227
206	0x3d3a5ebe	0.04550051
207	0xbd9cbd5e	-0.076533064
208	0x3e0958f1	0.13412835
209	0xbe3cd350	-0.18439984
210	0x3cdf4568	0.027254775
211	0x3e3cb1a1	0.18427135
212	0x3e3fc93b	0.18729107
213	0xbddf464f	-0.10902082
214	0xbdd27722	-0.10276629
215	0xbda3f65d	-0.080059744
216	0x3e4678de	0.19382045
217	0xbe1dec6b	-0.15422218
218	0x3e28aa6b	0.1647126
219	0xbe34ac76	-0.17643914
220	0xbe179b03	-0.14805226
221	0x3e1f706c	0.1557023
222	0x3d7438ee	0.059624605
223	0xbdfc72f7	-0.12326615
224	0xbd4f9c56	-0.050686203
225	0xbe69d0d5	-0.2283357
226	0x3d41107e	0.04713487
227	0x3d44db1e	0.04806053
228	0xbdffe85b	-0.1249549
229	0x3e07fca1	0.13279964
230	0xbd9a92a6	-0.07547502
231	0x3e0e5ff6	0.13903794
232	0xbe378d45	-0.17924984
233	0xbdaf2fe7	-0.085540585
234	0x3da313af	0.07962739
235	0xbe51b32f	-0.2047851
236	0xbe4bec65	-0.19914396
237	0xbe315032	-0.17315748
238	0x3dc8f1ec	0.09811768
239	0x3dcfc618	0.10145205
240	0x3d3a23b7	0.045444217
241	0x3e054e50	0.13018155
242	0x3d28719a	0.041123964
243	0x3da1185c	0.07865974
244	0x3da7afd9	0.08187837
245	0xbe293095	-0.16522439
246	0xbe0ec2fa	-0.13941565
247	0x3e110ab4	0.14164239
248	0xbde27272	-0.11056985
249	0xbe2f6efb	-0.1713218
250	0x3e648d36	0.22319493
251	0x3e0b4a49	0.13602556
252	0x3daf2ddc	0.08553669
253	0x3cbb1a27	0.022839619
254	0x3d564aef	0.052317556
255	0xbe13be90	-0.14428163

decoder.coeff_nets.0.0.0.bias f4 [50]
0	0x3e3bb351	0.18330123
1	0x3de7d9d5	0.11320845
2	0x3e48d810	0.19613671
3	0xbe39b9c4	-0.1813727
4	0x3ead07ef	0.33795115
5	0xbdfdeef1	-0.1239909
6	0x3eeddc3c	0.46457088
7	0x3d270919	0.04078016
8	0x3ea0dc9a	0.31418306
9	0xbe37ff5f	-0.1796851
10	0x3d317fb9	0.043334696
11	0x3e923bee	0.28561348
12	0x3eba6584	0.36405575
13	0x3e87ae05	0.26499954
14	0x3eead463	0.45865163
15	0x3d02deea	0.03195087
16	0x3ee9095b	0.4551495
17	0x3e90b9e7	0.28266832
18	0x3e18cad4	0.14921123
19	0x3d9e501b	0.07730123
20	0x3e64ca04	0.22342688
21	0x3dd31720	0.10307145
22	0x3e4a3caa	0.19749704
23	0x3ee3025d	0.4433774
24	0x3ddd65e4	0.1081045
25	0xbd8ee810	-0.06977856
26	0x3e899ade	0.26875967
27	0x3f0a52e3	0.54032725
28	0x3e6b536a	0.22981039
29	0xbe194a52	-0.14969757
30	0xbe5dc147	-0.2165576
31	0x3eaf27eb	0.34210142
32	0x3e803a53	0.25044498
33	0xbdc345ce	-0.095347986
34	0x3d92fb37	0.07176822
35	0x3e94ea90	0.29085207
36	0x3ebed7b4	0.37273943
37	0xbdf2325f	-0.11826014
38	0x3e866c1b	0.26254353
39	0xbd9f400e	-0.07775889
40	0x3e5d0f10	0.21587777
41	0x3c2106d4	0.009828288
42	0xbde1c2e5	-0.11023501
43	0x3d90eb5a	0.0707614
44	0xbe927a6d	-0.28609028
45	0xbe4a4518	-0.1975292
46	0xbbd45679	-0.006480035
47	0xbd5b1179	-0.05348346
48	0x3ddaf90e	0.10692035
49	0x3e565325	0.20930155

decoder.coeff_nets.0.1.weight f4 [50, 50]
0	0xbcd88ac7	-0.026433362
1	0x3dd75e7f	0.105160706
2	0x3dd76672	0.10517587
3	0xbca71977	-0.020397885
4	0xbd097266	-0.033556364
5	0xbbf90c63	-0.0076003536
6	0xbc2eed40	-0.010676682
7	0x3cea1035	0.028572181
8	0xbc969f7a	-0.018386591
9	0x3defcb3b	0.11708685
10	0x3c9453cf	0.01810637
11	0x3cdb0d1c	0.02673965
12	0xbdfb5fc1	-0.12274123
13	0xbe0de5a9	-0.1385714
14	0x3c18a3d6	0.009316405
15	0x3db56b7d	0.088583924
16	0xbd431511	-0.047627512
17	0x3cde5433	0.027139759
18	0xbe03aeed	-0.12859698
19	0x3c96cf7d	0.018409485
20	0xbd1753e9	-0.036945257
21	0xbd85c082	-0.065308586
22	0xbd94d9c6	-0.072680995
23	0xbc89bf2f	-0.016814796
24	0x3d89bc2a	0.067253426
25	0x3df149e0	0.11781669
26	0xbdeffec7	-0.11718517
27	0x3cde0ea2	0.027106587
28	0xbe0e5d29	-0.13902725
29	0x3d0614a2	0.03273452
30	0x3db60989	0.088885374
31	0x3c3257a0	0.010885149
32	0x3d9f31d4	0.07773176
33	0xbe00f643	-0.12593941
34	0x3d091437	0.033466544
35	0xbdb2d001	-0.0873108
36	0x3c939a64	0.018017955
37	0xb98e778c	-0.0002717342
38	0x3da54e17	0.08071535
39	0xbc844b86	-0.016149294
40	0x3d66a893	0.05631311
41	0x3d9fa1a3	0.07794502
42	0xbd0b248a	-0.033970393
43	0xbde18def	-0.110134
44	0xbc534879	-0.012895697
45	0x3d4dcb50	0.050242722
46	0xbe070f66	-0.13189468
47	0xbdad4ba4	-0.08461693
48	0x3d7e3f29	0.062071953
49	0xbdcdb7c2	-0.10044815
50	0x3e70c172	0.23511294
51	0x3c9a0ce8	0.018804982
52	0x3e854d7f	0.26035687
53	0xbd05fb2c	-0.03271024
54	0x3e4da08b	0.20080774
55	0x3de316e8	0.110883534
56	0x3e885f04	0.2663499
57	0x3df9d598	0.12198943
58	0x3e832910	0.25617266
59	0x3cf5737b	0.029962292
60	0x3e0f601c	0.14001507
61	0x3e01e21b	0.12683909
62	0x3cdc828a	0.026917715
63	0x3e810fca	0.2520736
64	0x3e514a2b	0.20438449
65	0x3e07a091	0.13244845
66	0x3e352942	0.1769152
67	0x3e47f997	0.19528805
68	0x3e5638da	0.20920125
69	0x3de7465c	0.11292717
70	0x3e3f667c	0.18691438
71	0x3d48bdb6	0.049009047
72	0x3e40712d	0.18793173
73	0x3e930313	0.28713283
74	0x3de422e0	0.111394644
75	0xbd1b6e72	-0.037947126
76	0x3e220f1f	0.1582608
77	0x3e75e95a	0.24014798
78	0x3d941d53	0.07232156
79	0x3c809497	0.015695853
80	0xbd24846b	-0.040165346
81	0x3e394bd4	0.18095332
82	0x3d5d26d1	0.053992096
83	0x3e21770d	0.1576807
84	0x3e09bb0a	0.13450256
85	0x3dad16f9	0.08451647
86	0x3de935bd	0.11387203
87	0xbc84148c	-0.016123079
88	0x3d9a55e8	0.075359166
89	0x3dd8293f	0.10554742
90	0x3dd44437	0.103645734
91	0x3da4ccac	0.080468506
92	0x3da8f12e	0.082491264
93	0x3d91665a	0.070996
94	0xbcf061af	-0.029343454
95	0xbd1878c4	-0.037224546
96	0x3d26dbdc	0.040737018
97	0xbcf06e66	-0.029349517
98	0x3e397bbb	0.18113606
99	0x3dd71fea	0.10504134
100	0xbdb392af	-0.08768212
101	0xbc859096	-0.016304296
102	0xbe010d71	-0.12602784
103	0x3dcd4aa3	0.100240014
104	0x3dc47ab0	0.09593713
105	0x3cb9b02e	0.022667017
106	0xbdcd4f52	-0.10024895
107	0x3d911341	0.070837505
108	0xbde30a53	-0.110859536
109	0x3de9f5fb	0.1142387
110	0xbd034f0d	-0.03205781
111	0xbc14a457	-0.009072385
112	0xbe050134	-0.1298874
113	0x3d466b72	0.04844231
114	0xbcee9e10	-0.029128104
115	0xbced50f1	-0.02896926
116	0xbd509f12	-0.05093295
117	0xbd767a99	-0.060175512
118	0x3c3da44f	0.011574819
119	0x3d1f10a5	0.038834233
120	0x3dda560e	0.10660945
121	0xbcf943cc	-0.030427836
122	0x3d9b1e3e	0.075741276
123	0xbe0f9e5e	-0.14025256
124	0x3cfe5426	0.031045984
125	0x3bf0594c	0.0073348638
126	0xbd25419c	-0.040345773
127	0x3d3a0552	0.04541523
128	0xbb39042a	-0.0028231242
129	0xbccb6154	-0.024826683
130	0x3e01d848	0.12680161
131	0xbdf81a28	-0.12114364
132	0xbdb982b6	-0.09058134
133	0xbd7f2fd7	-0.062301483
134	0x3e005604	0.12532812
135	0xbd37247d	-0.044712532
136	0x3ca239dc	0.01980298
137	0xbcec7caa	-0.028868038
138	0x3da6bb51	0.081411965
139	0x3dcb6718	0.09931773
140	0xbdc644dd	-0.096811034
141	0x3c0a9229	0.008457699
142	0xbe0c722c	-0.13715428
143	0xbd84058e	-0.06446372
144	0xbdc7d6ba	-0.09757753
145	0xbd1b9450	-0.03798324
146	0x3bb7f644	0.005614074
147	0xbd52ce5e	-0.05146634
148	0xbd63d10d	-0.05561929
149	0xbd2b4b3e	-0.041819803
150	0x3dc1b4fc	0.09458348
151	0xbd88cb6d	-0.066794254
152	0x3e4c94ab	0.19978587
153	0xbd2e1a59	-0.042505596
154	0x3dde6317	0.10858744
155	0x3d2296df	0.039694663
156	0x3d82588a	0.06364544
157	0x3d5e3940	0.054253817
158	0x3d1c401a	0.03814707
159	0xbdad5667	-0.084637456
160	0x3e24cd4c	0.1609394
161	0x3e55f403	0.20893864
162	0x3d94de22	0.07268931
163	0x3e9032d1	0.2816377
164	0x3e019294	0.12653571
165	0x3e39e930	0.1815536
166	0x3e01977b	0.12655441
167	0x3e4cad16	0.19987902
168	0x3df30723	0.118665956
169	0x3d27ef15	0.04099949
170	0x3e47052d	0.19435568
171	0x3d2b71c0	0.041856527
172	0x3e47dc92	0.19517735
173	0x3e218b21	0.1577573
174	0x3d1e8111	0.038697306
175	0x3df2b7a1	0.11851431
176	0x3e7a48bc	0.24441808
177	0x3e83fc3d	0.2577838
178	0x3d74acd5	0.059735138
179	0x3e1c2d96	0.15251765
180	0xbce666bc	-0.02812516
181	0x3e7cb737	0.24679266
182	0x3e22fa30	0.15915751
183	0xbd951b44	-0.07280591
184	0x3b400851	0.0029301832
185	0x3d4a3f65	0.049376864
186	0x3cd38e0e	0.025824573
187	0x3bc1e242	0.0059168646
188	0x3e6a29fd	0.2286758
189	0x3c02e6b4	0.007989574
190	0x3d4d9853	0.050194096
191	0x3e1eb431	0.15498425
192	0x3cf81e1c	0.030287795
193	0x3cf2db76	0.029645663
194	0x3c85fac7	0.016354932
195	0x3c2a5b92	0.010397809
196	0x3da2527d	0.0792589
197	0x3aea2c39	0.0017865963
198	0x3eaf8924	0.34284317
199	0x3dac3889	0.08409221
200	0x3db754a8	0.08951694
201	0xbd5ee575	-0.054418046
202	0xbb8cf9d2	-0.004302242
203	0x3c30e882	0.010797622
204	0xbdf8fd0e	-0.12157641
205	0x3c66de19	0.014091038
206	0xbd0efa0c	-0.034906432
207	0x3c4b8bae	0.012423439
208	0x3c5e816a	0.013580659
209	0x3d9a66e6	0.075391576
210	0xbd79b305	-0.060961742
211	0xbd87de01	-0.06634141
212	0x3d80bc08	0.06285864
213	0x3d4f81ec	0.050661013
214	0x3cc11676	0.02357028
215	0xbdcff7a4	-0.101546556
216	0xbda349a7	-0.079730324
217	0xbdfb879a	-0.12281723
218	0x3d432971	0.047646943
219	0xbda4158f	-0.080119245
220	0x3da68940	0.08131647
221	0xbdf4905a	-0.119415954
222	0xbdf9ef6e	-0.12203871
223	0xbdb070b5	-0.08615247
224	0x3db0e101	0.08636666
225	0x3d857d1c	0.06518003
226	0xbde3e133	-0.11126938
227	0x3c87fa2f	0.016598789
228	0xbe02e61f	-0.12783097
229	0xbdfe1d05	-0.12407879
230	0xbd9cbe27	-0.07653456
231	0x3d83ed14	0.064417034
232	0xb90efac3	-0.00013635591
233	0xbd3e62d9	-0.046480987
234	0x3d1b1095	0.03785761
235	0x3ca67de6	0.020323705
236	0x3d8074ba	0.06272264
237	0x3d144714	0.036200598
238	0xbd14bc5d	-0.03631245
239	0xbb50e5f5	-0.0031875346
240	0xbd525390	-0.051349223
241	0x3dd89f30	0.105772376
242	0x3da3c97b	0.07997414
243	0xbe0f7c4c	-0.14012259
244	0xbd6c05a0	-0.057622552
245	0xbccf1628	-0.02527912
246	0x3d496ab4	0.049174026
247	0xbd4d6d6a	-0.050153174
248	0x3de20560	0.110361814
249	0xbcb32588	-0.021868482
250	0x3e3081c4	0.17237002
251	0xbdb9defb	-0.09075733
252	0x3dd3d36f	0.10343062
253	0x3d142272	0.036165662
254	0x3dc1df6e	0.09466444
255	0x3d055536	0.032551967

decoder.coeff_nets.0.1.bias f4 [50]
0	0xbd3b153f	-0.04567456
1	0x3e70622b	0.23474948
2	0xbde9216e	-0.11383329
3	0x3e938f03	0.28820047
4	0x3acc601d	0.0015592609
5	0xbc3e3d54	-0.011611301
6	0xbcd198f0	-0.025585622
7	0x3e1efb02	0.1552544
8	0xbe04237c	-0.12904161
9	0x3e08f5fb	0.13375084
10	0x3de07e54	0.10961595
11	0x3d8f14dd	0.06986401
12	0x3dc85184	0.09781173
13	0x3de9d3fb	0.11417385
14	0x3e5ee9b2	0.21768835
15	0x3e89e70c	0.26934087
16	0xbdec316b	-0.11532863
17	0x3d828768	0.06373483
18	0xbde4e1fe	-0.11175917
19	0xbbfb739b	-0.0076736934
20	0x3eb2ddc5	0.34934822
21	0xbce888e7	-0.028385593
22	0x3de57d7d	0.112055756
23	0xbd45e93e	-0.04831814
24	0x3d836a3c	0.06416747
25	0x3dac87d9	0.084243484
26	0x3a8ab93d	0.001058377
27	0x3cfc2334	0.030778505
28	0xbde1d753	-0.11027398
29	0xbc5076f4	-0.012723673
30	0xbcdaf7cb	-0.026729485
31	0x3e000aa4	0.12504059
32	0x3c94c35c	0.01815956
33	0x3cfb4572	0.030672763
34	0x3e64912f	0.22321008
35	0xbc9991ef	-0.018746344
36	0x3d8b3764	0.06797674
37	0x3d099a7e	0.0335946
38	0xbca06cb0	-0.019583076
39	0x3e157604	0.145958
40	0x3d023f4f	0.031798657
41	0xbdd2153c	-0.102579564
42	0xbd5e2559	-0.054234836
43	0x3d2c5048	0.04206875
44	0x3e2ca40a	0.16859451
45	0x3d3daf3b	0.04630969
46	0x3d9b234e	0.07575093
47	0x3cebf4fc	0.028803341
48	0x3e138343	0.14405541
49	0xbb8800d5	-0.00415049
