saved_models/rootad_linear_ws_1_stride_1_encoder_alpha_0.5_decoder_alpha_0.5_encoder_gamma_0.5_decoder_gamma_0.5_encoder_lambda_0.5_decoder_lambda_0.5_beta_0.5_lr_0.0001_epochs_50_hidden_layer_size_50_num_hidden_layers_1.pt (torch, 23089 bytes, 12 tensors)

encoder.coeff_nets.0.0.0.weight f4 [50, 4]
00000000: 9877 d73e 5c8a e93e 8d5c 10be a6a9 f63e
00000010: 878d 1bbe 840c 163e 3a27 85be 30ba a83e
00000020: 950f ee3e e71e cdbe 4002 d53e 5a89 033e
00000030: 01a4 ae3e c490 363d fd7e 573e 72a6 4bbd
00000040: 9db3 bd3e c344 963d 0ba9 5abe 5488 1b3e
00000050: 6fa3 58be f9cb 83bd 4046 54be 3d1d 9d3e
00000060: 2039 dabe bfdd 6dbe 27d1 36be 28ad 9dbe
00000070: 06fa ec3c 1d2d f9be 48c5 f23e b3b7 d1be
00000080: 84d2 b83e 5d3d dd3d da0c 3dbe cc67 903e
00000090: 2f99 cb3d 27d3 dc3e 6db2 6b3d 4b46 2abe
000000a0: a6bd fb3d 6cfe e4bd 47ff 733e bf82 d93e
000000b0: 4e6f a43e e7bb 4dbe 9e46 993e 1c09 ef3d
000000c0: 5ae1 843e 3ced a7be 09a6 07bf 0e87 4dbe
000000d0: c7be d1be 868f c53e b788 f53d 0d64 793e
000000e0: 30a4 423e fdc0 28bd 4ea8 d03e 0006 c2be
000000f0: dc6a 4b3d 180f b8be ff57 013e c5f9 40be
00000100: 6dab 2b3e c3c2 09be d751 c93e 162b a8be
00000110: 12d1 8dbe 02c9 8dbe 163d eb3e 23d0 113e
00000120: 700d e83e 6363 c6be f409 f1be 0959 bebe
00000130: 68e3 a7be 0e54 773e 9772 1b3e d20e d33e
00000140: 1dc3 7fbe cd6b a4be 4e81 773e 7888 39be
00000150: 3520 903e 3c9d 07be 68a9 813e ed0f b8be
00000160: 41a1 81be 039c 343e 6037 9c3d d69f 2bbe
00000170: 2899 8f3e 279b c23e 77ad ccbe 6ed3 98be
00000180: e4a5 fe3e 0767 54be 584c 3ebe 1bd0 03bf
00000190: 2b63 98be fb34 163e 212b 1dbd 3761 adbe
000001a0: ab0e 1c3d c051 b4be 7748 edbe 461f 81be
000001b0: 5ac6 e9be e766 97be d151 f03e f874 f33d
000001c0: 628c 3b3e 6b8b e2be e94d 9cbe 5279 14be
000001d0: 2fc9 cc3d ec4d d5be 22ef 46be 6ec5 8fbe
000001e0: 7256 d8bc ba67 64be 5fd5 89bd eda1 b5be
000001f0: 6da5 bdbe d640 86be 4d78 17be d217 c6be
00000200: ad33 da3e 8a3e febd 1b65 cf3e 6042 043e
00000210: 8b7c e7be cd5c a23e ccde 28be 64a2 29be
00000220: 63d2 e5be cb0e 04bf 427e 1d3e 95b2 0fbe
00000230: cc9d 343e b162 e4be e300 ca3e 2b1a acbe
00000240: 4c2e 5ebd 428a 9c3d b9ff 873e d23c c13e
00000250: 9276 f33e 5826 c4be 6cf7 0b3e b245 53be
00000260: 86c8 90bd 7753 bcbe 28ff e03e 0b38 b2be
00000270: 7407 7a3e c628 473e 1257 343e ca70 8cbe
00000280: 5269 f53e 423e 0b3e 2482 3f3d d8af e3be
00000290: 61f8 4e3e c4f5 eabd 9151 83be d161 e03e
000002a0: edff be3d 6c70 a0be e705 94be 6513 55bd
000002b0: ab62 9f3e 6d0d 28be 7cb7 a3be 09e0 47be
000002c0: df00 d2be 7869 303e f52b c13e f299 e2be
000002d0: 6389 f63d bd17 8b3e 23f7 923d 383a 57be
000002e0: b39d 913e cc20 973e 82e1 623e 80d5 c0bd
000002f0: 7150 21be d111 a93c bbb5 69bd a7a3 f3bd
00000300: 492c a53e 8528 d03e 7c67 babc 563a b2bd
00000310: 4792 063c f958 463b ad50 dc3d 0a04 193e
0.4208343 0.45613372 -0.14097805 0.48176306 -0.15190707 0.14653212 -0.2600649 0.3295455
0.46496263 -0.4006264 0.4160328 0.12845364 0.341095 0.044571653 0.21044536 -0.04971928
0.37051097 0.07337334 -0.21353547 0.15188724 -0.21156095 -0.06435389 -0.20729923 0.3068637
-0.42621708 -0.2322912 -0.17853223 -0.3079617 0.028927814 -0.4866723 0.4741614 -0.40960464
0.3609811 0.1080272 -0.18461934 0.2820419 0.09941327 0.43129846 0.057543207 -0.16628377
0.12292032 -0.111813396 0.2382785 0.42482564 0.3211617 -0.2009121 0.2993669 0.11671659
0.2595318 -0.32798183 -0.52987725 -0.2007105 -0.40965864 0.38586062 0.11988967 0.24354573
0.19007945 -0.041199673 0.40753406 -0.37895203 0.049662456 -0.35949016 0.12631224 -0.1884528
0.16764612 -0.13453202 0.3932025 -0.32845372 -0.2769857 -0.2769242 0.45945042 0.14239554
0.45322752 -0.387477 -0.47077906 -0.37177303 -0.32790685 0.24153158 0.15180431 0.41222245
-0.24976774 -0.32113495 0.2417042 -0.18118465 0.28149572 -0.13243574 0.2532456 -0.3594965
-0.2531834 0.17637639 0.076277494 -0.16760191 0.28046536 0.38008997 -0.39976093 -0.29848808
0.4973594 -0.20742427 -0.1858381 -0.5148942 -0.2976316 0.14668648 -0.03837121 -0.33863232
0.038099926 -0.3521862 -0.4634435 -0.25219172 -0.45659143 -0.29570696 0.4693742 0.118875444
0.1831527 -0.44246992 -0.3052819 -0.14499405 0.0999931 -0.41661012 -0.1942716 -0.28080314
-0.026408408 -0.22305194 -0.067301504 -0.35475102 -0.37040272 -0.2622134 -0.14791985 -0.38690048
0.4261755 -0.12414272 0.40506825 0.12915945 -0.45212206 0.31711426 -0.1649124 -0.16565853
-0.44887075 -0.5158507 0.15380195 -0.14032967 0.1763832 -0.44606546 0.39453802 -0.33613715
-0.05424337 0.07643558 0.26562288 0.37741715 0.475514 -0.38310504 0.13668603 -0.20632055
-0.07069497 -0.3678243 0.4394467 -0.34808382 0.24416906 0.19449148 0.1761134 -0.274298
0.47931916 0.13597968 0.04675497 -0.44470096 0.20211937 -0.11472657 -0.25648168 0.43824628
0.09326158 -0.3133577 -0.28910753 -0.05202045 0.31129965 -0.16411372 -0.31975925 -0.19519056
-0.4101629 0.17227733 0.3772885 -0.44258076 0.12037923 0.27166548 0.07176044 -0.21018302
0.28440627 0.2951721 0.22156337 -0.09415722 -0.15753342 0.020638378 -0.057058077 -0.118964486
0.3226035 0.40655914 -0.022754423 -0.08702533 0.008213586 0.0030265434 0.10757575 0.14942947

encoder.coeff_nets.0.0.0.bias f4 [50]
00000000: 8d07 d2be 17de 10be efa7 d03e a587 303e
00000010: 1b80 5b3c f93b a5be e456 8cbe e843 e9be
00000020: 662b 3fbe 7aff 483e b007 b83e 7c78 8c3e
00000030: 9c60 cfbe 0aae a0be f8d5 21bd afd9 ef3e
00000040: c394 e43d a6d1 15be 17e6 3e3e 4b56 44be
00000050: 1d98 b1be 227e ca3e 2e7f 4abe 3d3b 81bd
00000060: 2ba7 e8be 693b a43e bbd9 db3e 2cdb 203e
00000070: dc83 bebe 8e04 04bf 97b2 bdbe d374 b63e
00000080: 4777 5b3e 3ecb e63e 5c70 9a3e d8da 2d3e
00000090: 1425 e5bc ba5d c4be 84ed e2be dec5 eabe
000000a0: f4f2 7b3e 979f 5cbe 0d6a 7cbd a12f 81be
000000b0: ea48 ebbd 10c8 a8be 1d17 95be fb2b 103e
000000c0: 7f53 21be 8f85 b13e
-0.41021386 -0.1414722 0.40753123 0.17239244 0.013397242 -0.32272318 -0.27410042 -0.4555962
-0.18668899 0.19628707 0.35943365 0.27435672 -0.40503395 -0.3138278 -0.039510697 0.46845767
0.111611865 -0.14630756 0.1864246 -0.19173543 -0.34686366 0.39549357 -0.19775078 -0.06310127
-0.4544004 0.32076576 0.42939553 0.15708607 -0.37209976 -0.5156945 -0.37050316 0.35636005
0.2143222 0.45076936 0.30163848 0.16978014 -0.027971782 -0.38352758 -0.44321835 -0.45854086
0.24604398 -0.21545254 -0.061624575 -0.2523165 -0.11488517 -0.32965136 -0.29119197 0.14079277
-0.15754507 0.3467221

encoder.coeff_nets.0.1.weight f4 [16, 50]
00000000: 168c ecbc 7efb 0abe 9ff6 36bd e00c b4bd
00000010: a6f8 83bd 8cbc 21be 1318 cf3d 1ef1 91bd
00000020: ef81 973d 1daf fb3c 2b0f 983d 8849 05be
00000030: 1463 b23d 9810 c4bd ba3f 4a3d 2340 f33d
00000040: 30e6 a4bc ef7e 41bc 817d 2dbd 3970 14be
00000050: 7dc0 b43d 5b47 1ebe c426 793d fe4c aa3d
00000060: 03d8 013e aaf1 4abd c711 00be d3dd a33c
00000070: 6a94 8c3d 16ab 07be 0896 edb9 6462 afbd
00000080: f0b4 08bd ffe3 ccbd 7b9c 6ebd 8f6b 14bd
00000090: 2802 21be 9636 d83d 2158 113e 5ea3 e8bc
000000a0: 3d2c 1fbd 902b 78bd 9649 0dbe e8c7 1cbe
000000b0: f3c2 553d eb4f a6bd 6ae1 dbbd 623c debc
000000c0: 9a66 69bd bc99 97bd fead 4c3c 66fa 41bc
000000d0: 2785 36bd fd5f 6abd 50b8 b4bd 7a88 c83d
000000e0: d40d d7bc 73fb 753d f4a2 f3bc da7a 2f3d
000000f0: a43a e83d 89d8 763d 4e3b c1bd 99d2 953d
00000100: 4c4a 183e 3b98 813d 30b5 ec3d 4e30 f13d
00000110: 9fd8 ab3b 1495 ce3c e6e1 97bd 2af2 4cbb
00000120: 0b0a 103e 6897 d93d 53d7 81bd dff8 a7bd
00000130: d11a 8abd a984 14be 828c adbd c9be 38bc
00000140: a8e0 fa3d 10ba 593d 36e1 02be 7996 a3bd
00000150: 1ae2 c33d 1c55 a8bd 75ab 24bd 0494 ab3d
00000160: c19a 2cbd 80d6 b8bc 0147 7c3c 3fa6 3abd
00000170: 3f07 32bd 673f c5bd e8a7 a8bd effe 5bbd
00000180: 24b9 d13d 90c7 1abd 7056 95bd d8b6 553d
00000190: aaca 7a3d 9f2d 883d d0d1 fd3d ba6c 333d
000001a0: 4daa e8bd ec00 883c 1154 dd3d de94 ffbc
000001b0: 1e8b 5cbd 69e5 c73d a937 09bd d678 8abd
000001c0: a53d d1bd 2617 7f3b 9363 df3c 5c97 503d
000001d0: bf8c 1bbc d9ab c0bd 3e70 dcbd c62b a33c
000001e0: f4fe f43d d08a 8b3d 7ec0 ecbd 9135 aebc
000001f0: b553 abbd 0cab 98bd a213 4b3d 45e6 a63d
00000200: a6b9 103e 93fb dbbd 4b29 ed3d 914c a3bd
00000210: eb50 553d 571d d33d 7839 be3c c925 003e
00000220: 567f d1bd 9d8b 23bd a88e 6d3d a1c4 51bd
00000230: 5c2b 4cbd e9de f3bc bfce ff3d 023f c33d
00000240: d66c 433c cb4f dfbd 86ab 1dbe 5656 db3c
00000250: 1bbe fc3b 9e32 51bd b896 7fbc b134 ff3d
00000260: de28 203d 467c dc3c 64f9 1dbc 071e d3bd
00000270: d185 e2bd 3d95 40bd eccc 47bd fffe d93c
00000280: 4224 31bc 3cb1 d7bc 835d 1f3e 05dd 923d
00000290: c326 d83d 4c0e 36bd 3c54 2abd 7f86 a63d
000002a0: 291a 9dbd a9ba 83bd ac03 8d3c cf9d 0cbd
000002b0: 92f9 0cbe 8a5d 5d3d c57e f23d 96a2 063d
000002c0: 6335 80bb d84f cfbd 51c5 fabc 9e56 623d
000002d0: 7772 a93d 9e43 d63a fd72 e9bc a83d bc3d
000002e0: da4f aebd f7f0 e53d b862 d5bc e644 873c
000002f0: 7cc1 09bc 03ac 7d3b 750a 29bd f955 073e
00000300: e749 b53c 45f2 013e f6ca 063e c2f6 c5bd
00000310: 64f4 d5bd 12df 023e c436 a73d be9f a2bd
00000320: e98c 4bbd 0fbc 38be 4e02 1abe 6268 dcbb
00000330: bc58 233b 66ed 853b 5f3f 94bd c23d e03d
00000340: bd18 56bc 8c84 f7bd a6fc 36bd 4945 24bb
00000350: 5114 9a3c 1823 08be 9cf3 963c 14c5 dabd
00000360: c24e 1cbe 47db d5bd d842 d53d 60c9 b43d
00000370: ed6e fc3d 4d32 453d 18b3 8b3d dae4 57bd
00000380: 4c24 dcbd f97c 0e3d 28c8 debd e1e3 03be
00000390: a4bb 95bd 7356 eb3b 0540 4d3d aa89 b8bd
000003a0: 0614 f2bd 31cc 93bc e9bf f4bd a3c5 00be
000003b0: 53cd 283d da65 57bd 9a4b e93d 0c5c e93d
000003c0: 59be f63b d543 5e3c 7c5c f9ba a5a9 f3bc
000003d0: 36b0 39bd 073b e9bc a5be 803c 9f7c c63d
000003e0: 8c80 8dbd 5f70 c6bd 60ea c0bc 78f0 debc
000003f0: 6a45 643d 0dc8 093e 0010 103e 75cd c23d
-0.028875392 -0.13572499 -0.04466879 -0.08791518 -0.0644391 -0.15794581 0.10112014 -0.071260676
0.0739783 0.030723149 0.07424768 -0.13016331 0.08710304 -0.095734775 0.04937718 0.118774675
-0.020129293 -0.0118100485 -0.042356018 -0.14495935 0.08825777 -0.15456907 0.060827985 0.08315466
0.12680058 -0.049546875 -0.12506782 0.020003235 0.06864245 -0.13248858 -0.00045315945 -0.085636884
-0.03337568 -0.10004424 -0.0582547 -0.03623539 -0.15723479 0.105572864 0.14193775 -0.028398212
-0.03886055 -0.06058842 -0.13797602 -0.15310633 0.05218787 -0.08120712 -0.10736354 -0.027128402
-0.056982614 -0.074023694 0.012492655 -0.011839485 -0.044560578 -0.057220448 -0.08824217 0.09791656
-0.026251711 0.060054254 -0.029740788 0.04284177 0.1133931 0.060265098 -0.094351396 0.07315559
0.14872092 0.06327864 0.11557996 0.117767915 0.005244329 0.02521757 -0.074161336 -0.003127227
0.14066331 0.106245816 -0.06339898 -0.08201765 -0.06743396 -0.14503731 -0.08474065 -0.0112759555
0.12249881 0.05315596 -0.12781224 -0.07987685 0.0956461 -0.08219358 -0.040202577 0.08377841
-0.042139772 -0.02256322 0.015397788 -0.0455687 -0.04346394 -0.09631234 -0.082351506 -0.05370992
0.10240391 -0.037787974 -0.07291877 0.052176327 0.06122843 0.066493265 0.12393534 0.04380486
-0.11360607 0.016602002 0.1080705 -0.031198915 -0.05384361 0.097605534 -0.033500347 -0.06761329
-0.10216836 0.003892371 0.02726916 0.050925598 -0.009494006 -0.09407777 -0.10763596 0.019918334
0.11962691 0.06813586 -0.115601525 -0.021265777 -0.08365575 -0.074544996 0.04957927 0.08149389
0.1413332 -0.10741343 0.11580142 -0.07973588 0.052079123 0.103083305 0.023220763 0.12514414
-0.102293655 -0.039928067 0.057997376 -0.05121291 -0.04984604 -0.029769378 0.124906056 0.09533502
0.011927804 -0.10903891 -0.15397462 0.026774567 0.007713092 -0.051073663 -0.015599899 0.12461222
0.039101474 0.026914727 -0.009641979 -0.10308462 -0.1106068 -0.047017325 -0.048779413 0.02661085
-0.010811867 -0.02632963 0.15563016 0.071710624 0.10554268 -0.04444723 -0.04158424 0.08131122
-0.07671005 -0.06432087 0.017213665 -0.034330186 -0.13767079 0.054044284 0.118405856 0.032869898
-0.003912614 -0.10122651 -0.030611666 0.055258386 0.082737856 0.0016347056 -0.028497213 0.091914475
-0.08511324 0.11227601 -0.02604805 0.016512346 -0.008407947 0.0038707263 -0.04126974 0.1321639
0.022129966 0.12690075 0.13163361 -0.09666206 -0.104470044 0.12780407 0.081647426 -0.07940625
-0.04969493 -0.18040489 -0.15039942 -0.0067263106 0.0024924716 0.004087138 -0.072386496 0.10949279
-0.0130674215 -0.12085828 -0.044674538 -0.0025065711 0.018808516 -0.13294637 0.018426709 -0.10682121
-0.15264419 -0.104422145 0.1041314 0.08827472 0.12325845 0.048143674 0.06821269 -0.052708484
-0.107491106 0.034787152 -0.108780205 -0.12879898 -0.0731118 0.0071819364 0.050109882 -0.09010632
-0.118202254 -0.018041702 -0.119506665 -0.12575392 0.041211437 -0.052587368 0.11391373 0.1139451
0.0075300154 0.013565977 -0.0019024755 -0.029743979 -0.045334063 -0.02847053 0.015715906 0.09691738
-0.06909284 -0.09689402 -0.023549259 -0.027214274 0.05573026 0.1345522 0.14068604 0.09511844

encoder.coeff_nets.0.1.bias f4 [16]
00000000: 43bf e33d e2ee fb3b 6406 92bd 6ece 2bbd
00000010: 82a8 d33d a95c 0a3d 9890 4f3b 215b 1abd
00000020: e45f 4ebd a686 adbd 8e05 d2bd f913 ac3d
00000030: fece b63d fd9e 2b3e a821 0bbe b47a 513d
0.11120465 0.007688389 -0.07130125 -0.041944914 0.10334875 0.033779774 0.0031671878 -0.037684564
-0.050384417 -0.08472948 -0.10254966 0.08402247 0.089261994 0.16759868 -0.13587058 0.05114241

decoder.coeff_nets.0.0.0.weight f4 [50, 4]
00000000: 4931 aabe 2b04 a73e 2749 c53e 08e7 cf3e
00000010: 875c ad3e e0c0 983e 011b e53b 2466 5e3e
00000020: 0c1b 5cbe 1523 5a3e b44d 25be 63a8 0fbd
00000030: 6fc7 d7be 9304 14be 651d 8bbe f367 20be
00000040: 1135 aebe 1794 e1be dd77 8c3c f46f af3e
00000050: b5aa f33e 7c32 983e d3e5 93be 1b3a f0be
00000060: da14 4a3e e816 9e3e ffc7 ebbe 65ec 4f3e
00000070: cd51 e43e 7e1b ce3c 3cb2 8ebe 120c c73e
00000080: 2ff0 513e 5db9 a93e 2f20 bbbe dbc1 963e
00000090: 0173 a4be 1ff6 f13e dc2c 3abe 3cd8 923e
000000a0: e320 9d3d 402a f83d 2282 86bd 79d5 613e
000000b0: 6ef5 5abe d24b eebe aab1 30be a134 c43e
000000c0: ea71 04be 595d 0a3e 77f4 4fbe 214d b93e
000000d0: 8d95 973e 2e84 2b3e 4801 90be ec3f ddbe
000000e0: 8f93 fc3c 06ce a8be e974 e53e b313 03bf
000000f0: 06d9 4b3e 2dda 033f b6bc 8a3e 8176 403e
00000100: c9a9 eebe 8984 ff3e b719 81bd 19c9 e2be
00000110: 2dbb fb3e f5e6 6cbe fae0 dbbc 757d e93e
00000120: 3589 adbe 6b4c adbe 4e31 c43d dfd7 55bd
00000130: 7015 a83d 1136 ccbe 6447 4c3c 7826 4cbe
00000140: ffb2 67be 7de2 debe 69a2 8d3e 79fe c33d
00000150: f1a7 d0be b474 c43e a057 0f3e 33cb b13d
00000160: 1293 88be 256e 8f3d ae0f 023f e6e4 b83e
00000170: 98da bcbe 9d84 e03e 463b 983c a961 633e
00000180: 62d8 cc3e 1542 e63e 4026 bdbe fbaf e43e
00000190: 49f0 a7be 0759 d03c 0b4c aabe 11e3 b2bd
000001a0: f604 1ebd 4200 9fbd dd29 a5bd 58fb e13c
000001b0: d451 f23e ff6b 863e 2326 853e 2aa3 323e
000001c0: a51c c23e 9d34 3fbb 37b8 1b3d c074 cb3d
000001d0: f5d6 ddbe 222c d2be 5958 733d 3969 4fbe
000001e0: 103e 17bc d98a 02be f33b b83d 80a3 af3e
000001f0: 7f11 3fbe beae d43e b2c8 d33e acb5 babe
00000200: b75e b6be 9fb9 c3be a01a 94be ce85 61be
00000210: b669 8dbc e745 debd 081a 7bbe cbe3 3dbe
00000220: 41a4 3fbe 9cbc 033f a033 43be 837e c2be
00000230: 48c2 3f3e f937 7bbd be1d c23e cb55 933e
00000240: b52d fa3e a4d6 cdbe 1775 b43e 9fc8 d33e
00000250: 0775 8abe 6367 f63e 468f b83e 2e7b 023d
00000260: 17d2 843e 5cd1 2bbe 4b29 d7be 0b2f 133e
00000270: c8fa 0a3e 63ef 9abe 72ab 703e a70c cdbe
00000280: d1cf d33e 336e e63e 7545 ec3d efb2 acbe
00000290: f2ea 813e ef14 cb3d a1bd 183e 0ce1 383e
000002a0: fc2a b83e 3cbb 4ebe f16f b4bd 6f6a 003e
000002b0: 08e1 8e3d 123a c43e 6464 72be 74c9 f8bc
000002c0: 9fae 883d a8dd 02be 760e a63e 3466 0a3d
000002d0: 0bb3 f9be a5b3 99bd ffde 65be 3683 ec3c
000002e0: 1d86 c4bc 9510 07bf 16f4 76bd 461e 4cbd
000002f0: 5f60 2bbe 4e6a f63e 01ad 10be 0bce 9b3e
00000300: e9d1 bb3d fde4 cdbe c710 c53d 9b13 c83e
00000310: 8c6b b5be ec8c a7be a76b 043f 440f d93e
-0.33240727 0.32620367 0.38532373 0.4060595 0.33859655 0.29834652 0.0069917445 0.21718651
-0.21494693 0.21302445 -0.16142923 -0.035072695 -0.42144343 -0.1445487 -0.27170864 -0.15664653
-0.3402486 -0.44058296 0.017146999 0.342651 0.47591177 0.29726017 -0.2888628 -0.4691933
0.19734517 0.3087685 -0.46051022 0.20305021 0.4459366 0.025159594 -0.27870357 0.38876396
0.20501779 0.33149233 -0.36547992 0.29444775 -0.3211899 0.47258088 -0.18181175 0.286806
0.07672288 0.121174335 -0.065677896 0.2205409 -0.21382686 -0.4654222 -0.17255273 0.38321403
-0.1293408 0.13512172 -0.203081 0.36191657 0.29606286 0.16749641 -0.28125978 -0.4321283
0.03083208 -0.32969683 0.44815758 -0.51201934 0.19907007 0.51504785 0.270971 0.18795206
-0.4661391 0.49905804 -0.06303733 -0.4429405 0.4916624 -0.23134978 -0.026840676 0.4560353
-0.33893743 -0.33847365 0.095797166 -0.052207824 0.08207214 -0.39885 0.012468193 -0.1993655
-0.22626875 -0.43532172 0.27662972 0.09570021 -0.4075313 0.38370287 0.1399827 0.08681335
-0.26674706 0.0700343 0.50805175 0.36112136 -0.36885524 0.43851176 0.018582951 0.22205223
0.40008837 0.44972292 -0.36943245 0.44665512 -0.3280051 0.025433077 -0.3326114 -0.08734716
-0.03857895 -0.07763721 -0.080646254 0.02758567 0.47328055 0.2625427 0.26005659 0.17445055
0.3791248 -0.0029175647 0.038017478 0.09934378 -0.43328062 -0.41049296 0.059410427 -0.20254983
-0.009231105 -0.12748279 0.089958094 0.34304428 -0.18659018 0.41539568 0.41364056 -0.3646673
-0.35619137 -0.38227555 -0.28926563 -0.22023699 -0.017262321 -0.108531766 -0.24521649 -0.18543927
-0.18715002 0.5145967 -0.19062662 -0.37987146 0.18726456 -0.061332677 0.37913316 0.28776392
0.48862997 -0.4020282 0.35245582 0.41364 -0.2704241 0.48125753 0.3604681 0.031855755
0.25941536 -0.16779083 -0.42023692 0.14373414 0.13572228 -0.30260763 0.23502901 -0.40048715
0.4136949 0.4500595 0.115366854 -0.33730265 0.25374562 0.09916102 0.14916088 0.18054599
0.35970294 -0.20188612 -0.08810414 0.12540601 0.06976515 0.38325554 -0.23671108 -0.030369498
0.06673931 -0.12779868 0.32432908 0.033788875 -0.4876941 -0.075049676 -0.22448348 0.02887116
-0.023989731 -0.5275968 -0.060291372 -0.04983356 -0.16735981 0.4812798 -0.14128496 0.30430636
0.091708966 -0.40213767 0.09622341 0.39077458 -0.35433614 -0.32724702 0.51726764 0.4239446

decoder.coeff_nets.0.0.0.bias f4 [50]
00000000: b803 81be 27f5 903e bec6 7cbd b671 fcbe
00000010: e1a9 893d aa5d 093e 37c2 f5bd e187 303e
00000020: 8dba d0be 2445 ac3e c65c cf3e cd78 943e
00000030: 10df b23d 75de 473e 79be a5be b790 d9bd
00000040: a24d 74bd 1cfe 8fbe 0100 c4be b7ed 9b3e
00000050: 830c b83e 586f efbe 300f 3d3e fb8f 4d3e
00000060: d562 003f c640 a13e 997b dd3e 4a57 46be
00000070: 28e7 c03e e3e6 dc3e 2759 e8be 19fa c3be
00000080: 7f03 0a3e 83aa 823e 65e1 62be 1af3 e33c
00000090: 1c01 0c3d d285 0c3e 59ef 8ebe 2fd7 813e
000000a0: 39a9 b33e f220 aabe ecff 61bc fd0a c3bc
000000b0: 9781 0d3e 96fa e63e 803e 393e 7e72 ddbd
000000c0: 8dcb d73e b789 23be
-0.2519815 0.28312036 -0.061712973 -0.49305505 0.06721855 0.13414636 -0.11999934 0.17239334
-0.40767327 0.336465 0.40500468 0.28998414 0.08733952 0.19518454 -0.32371882 -0.10623305
-0.05964435 -0.28123558 -0.38281253 0.304548 0.35947046 -0.46764636 0.18462825 0.20074455
0.50150806 0.3149473 0.4325836 -0.19369236 0.37676358 0.43144903 -0.45380518 -0.38276747
0.13477896 0.25520715 -0.22156294 0.02782588 0.034180745 0.13722923 -0.27916983 0.25359485
0.35090044 -0.3322826 -0.013793927 -0.02380895 0.13818966 0.45113057 0.18090248 -0.10812853
0.42147484 -0.15970503

decoder.coeff_nets.0.1.weight f4 [16, 50]
00000000: dd22 f8bc a776 c33a c117 a9bd 256e 083d
00000010: 415a a8bd da88 373c 0eb2 803c a1f0 293c
00000020: c6e0 f2bd 0391 01be e2f1 6e3d 70b8 023e
00000030: 58c2 eebd 35e7 3d3d 4be6 d1bd 0c0a 2b3c
00000040: d726 183e fa00 dc3d b939 abbd 768b 8b3d
00000050: f43b 963d 8fb1 453c e043 0d3e e01e 3dbd
00000060: 8f29 20bd da14 65bd 7b90 6b3c a104 2f3d
00000070: 1968 bbbb db2a 92bd d077 62bd 6f1a 473d
00000080: 2935 d4bd b21b aebc f52a cb3b e911 81bd
00000090: f74e 273d 3e14 483c fa4c b23d 9e4f 0dbd
000000a0: 4935 c7bd 4458 de3d 9837 6c3c 7e7b 0ebd
000000b0: d216 ddbd 6a22 343d ab14 09be 107e 403d
000000c0: 1dc6 653d f00f e9bd c0c7 bcbd 3828 c3bd
000000d0: 8f73 ca3d 011f 0c3e fe0d 0f3d 94c8 f03d
000000e0: fb44 41bd 1671 f1bd ff5b 4c3d 7e49 153d
000000f0: a546 063e 87fd b63c 904d e33d f680 843d
00000100: 1b59 b83d 74b8 fabd 929b be3d 5bc5 d2bd
00000110: 2599 153e 3ce1 85bc 5a5b f2bd 2768 f23c
00000120: 1ccd c7bc 5e1b 0fbe 8f2d 4dbd 9c10 c1bb
00000130: e033 c13d 7a7b debc 3070 ab3d 6a1c 763b
00000140: 7860 233b b33d aa3c f1c3 a8bd 7cb5 0dbe
00000150: cd3f 4abd 1aa2 d4bd 09c5 24bd 828c 8cba
00000160: fc05 9abd c2e2 a4bd b1e5 0cbd 62ad d8bb
00000170: 3419 84bd 5edd f83a 1bc9 a5bc d619 cf3c
00000180: f0d6 b13c 731c 97bd 4b58 dbbc f475 0e3c
00000190: fb06 c3bd d99d 0a3d e154 ac3b ca89 8f3d
000001a0: 245e 783d 8e12 e33d 8662 ad3c c46a 9fbd
000001b0: 905b a83d 65c7 96bd 85bb 943b 1622 9dbc
000001c0: 94a2 d0bc f409 32bd 40a1 173e 85a4 c43d
000001d0: 0a05 663c 0c90 1f3e 160b e6bd fb49 343d
000001e0: 07f1 eb3d db57 a03d 7f0a bbbd 8d11 873d
000001f0: e721 63bd 33cb 793c ea14 e6bb f2e2 c5bd
00000200: b487 e3bd b9d8 94bd 4f9a a33d ddca 2d3d
00000210: 60e6 cdbd 6922 07bd 4fbe bbbc 9f10 bcbd
00000220: 37a2 e23d 63e3 f23d 5db4 363d c243 babd
00000230: 68d3 193d 6f7d 883d 51be 083e 5655 74bd
00000240: 041c d3bd 2d54 ac3d 6dbd 063d 38a4 cabc
00000250: 2488 02bd 2cb0 4cbd e3f3 ca3d 5577 fdbc
00000260: 16c3 a23d 2e45 f33d 7492 8738 63ab 073d
00000270: 8ee3 f7bc e028 af3d ac6e 10be 8131 1e3d
00000280: c0d2 09bd 4596 483d 6df5 a2bc 1aba 47bd
00000290: 038b 823b 4266 913d 281d d1bd 3ac2 b8bd
000002a0: 29b9 18bd 13e4 26bd 1c34 553d b94f a53d
000002b0: a16e d2bc 675b ee3d 484d 94bd 61c7 c2bd
000002c0: 588a 91bd 8d33 babd dccd c9bd d4c8 04be
000002d0: 58ed fcbd 0a0b 423d 328b 9c3d 22d9 013e
000002e0: 0118 e23d 46ed ffbb cb42 0b3d 1d98 bcbd
000002f0: e889 233d 80f7 e3bd a304 a03d 69d0 2b3d
00000300: 4e52 2e3d 3234 0f3d 5373 4ebd ac29 da3d
00000310: dbe2 843d 0d4d 973d 32e0 273c 4cf2 9a3d
00000320: 6093 f03d aab2 b33d 2594 0e3e 57a8 27bc
00000330: 2bbb eb3d b866 7a3d b3a9 a53d f1a8 2a3e
00000340: 2832 943c da42 d5bc 6a0e 8d3c 507b 8a3d
00000350: 8dff 3a3d 54ac e7bb eb80 0b3e b560 983d
00000360: 190b 64bd a76c 4e3c 886d 32bc 3474 65bd
00000370: 9c31 4a3d 5f29 bbbc 6315 4abd bb8d 9cbc
00000380: f917 abbc ac12 2a3e 4333 af3d cb4e 053e
00000390: 2992 943d 6acd 803d ced0 653d c725 2a3d
000003a0: 8c88 a7bd 563f 50bd ed56 e7ba 7fa7 6d3c
000003b0: af29 b43d e1c8 aa3d 6222 0f3e 20c7 7c3d
000003c0: 20a4 acbc 4e8a e9bd a36e 8fbd be78 91bd
000003d0: ea36 973d 2dae d63d 246c 213e 11e5 b9bc
000003e0: e2ba 973c 6fa8 cfbc ded9 aabc a3c4 cc3c
000003f0: fd0d eabc 5ac3 2f3c 5014 93bb c332 fb3c
-0.030290062 0.001491268 -0.08256484 0.033308167 -0.082203396 0.011202062 0.015709903 0.010372312
-0.118592784 -0.12652974 0.058336146 0.1276567 -0.11658162 0.046363074 -0.10249003 0.010439407
0.14858566 0.10742374 -0.08360619 0.068137094 0.07335654 0.012066259 0.13795424 -0.046172023
-0.039102133 -0.05592809 0.014377709 0.042729024 -0.0057191965 -0.0713708 -0.055290043 0.048609193
-0.10361702 -0.02125344 0.0062001892 -0.06302244 0.04084679 0.012211857 0.08706088 -0.034499757
-0.0972696 0.10856679 0.014417551 -0.03478574 -0.10795368 0.043978132 -0.1338679 0.046995223
0.05609714 -0.11379993 -0.09217787 -0.095291555 0.09885322 0.13683702 0.034925453 0.11757007
-0.047184926 -0.117891476 0.04989242 0.03644704 0.13112886 0.022337688 0.11098778 0.0646991
0.090013705 -0.12242213 0.093070164 -0.10291549 0.14609201 -0.016342752 -0.1183383 0.02959068
-0.024389796 -0.13975284 -0.050092276 -0.0058918726 0.094337225 -0.027158488 0.083710074 0.0037553557
0.0024929326 0.020781374 -0.08240498 -0.13838762 -0.04937725 -0.10382481 -0.04022697 -0.0010723027
-0.07520673 -0.08051063 -0.03439874 -0.0066124657 -0.064501196 0.0018986871 -0.020237496 0.025280874
0.021708935 -0.07378473 -0.0267755 0.008695114 -0.09522816 0.03384194 0.005259142 0.07008703
0.060636654 0.110875234 0.021165144 -0.07784036 0.08220589 -0.0736225 0.0045389556 -0.019181293
-0.025468148 -0.043466523 0.14807606 0.09601692 0.014039287 0.15582293 -0.11232583 0.044015866
0.11520582 0.07829257 -0.09132861 0.065951444 -0.055452254 0.0152462 -0.007021536 -0.09662427
-0.11109868 -0.07267899 0.079884164 0.042429794 -0.10053706 -0.0329918 -0.022917895 -0.09182858
0.11066096 0.11859777 0.0446056 -0.09094955 0.03755513 0.066645496 0.1335385 -0.059651695
-0.10308078 0.08414493 0.032895494 -0.024736509 -0.031868115 -0.049972698 0.09909799 -0.030940691
0.07947366 0.11878429 6.464581e-05 0.03312243 -0.030259874 0.08552718 -0.14104718 0.03862143
-0.033648252 0.048971433 -0.019892419 -0.048761465 0.0039838566 0.07099582 -0.10210639 -0.09021421
-0.037285957 -0.040744852 0.05205165 0.080718465 -0.025687518 0.11638527 -0.07241303 -0.09510685
-0.07106465 -0.09091864 -0.09853718 -0.12967235 -0.12349957 0.04737381 0.07643737 0.12680486
0.11039735 -0.0078102676 0.033999246 -0.09208701 0.03992644 -0.11131191 0.078133844 0.041946802
0.04255896 0.034961887 -0.05040295 0.106524795 0.06488582 0.07387743 0.010246323 0.07565746
0.117468596 0.08774312 0.139237 -0.010233006 0.11510309 0.061133116 0.08089008 0.16666009
0.018090323 -0.026032854 0.017218787 0.06761801 0.04565387 -0.0070701037 0.13623397 0.074403204
-0.055674646 0.012599147 -0.010890372 -0.056019023 0.049363717 -0.022846876 -0.049336802 -0.019110551
-0.020885454 0.16608685 0.08554699 0.13018338 0.0725444 0.062891796 0.056107335 0.041539934
-0.08180341 -0.05084165 -0.0017649807 0.014505266 0.08797013 0.08339096 0.1397796 0.061713338
-0.021074355 -0.11403333 -0.07003524 -0.07103108 0.07383521 0.1048244 0.15763909 -0.022692235
0.01852173 -0.02534887 -0.02085584 0.024996107 -0.028571123 0.010727728 -0.0044885054 0.030663854

decoder.coeff_nets.0.1.bias f4 [16]
00000000: 98df b93d f2fa 973d 9a65 7c3d 9cae 323d
00000010: 8148 9f3d 9eae 0fbc 7fe3 fe3d e9f8 db3d
00000020: cbdc fa3c b1ac f7bc 02d1 f63d e7be a8bd
00000030: 0d48 9f3d 0bf3 893d 42c8 ef3d 6590 34bc
0.0907585 0.07420911 0.061620332 0.04362355 0.07777501 -0.008769659 0.12445735 0.10740835
0.03062286 -0.030233713 0.12051584 -0.08239537 0.077774145 0.0673581 0.11708118 -0.011020754

decoder_prev.coeff_nets.0.0.0.weight f4 [50, 4]
00000000: a34d b7be 3a05 b13e 955a 68be 5059 e53d
00000010: 8e47 8d3e 1abc fdbe 7d83 703c 806a 51be
00000020: eef1 a33e 3b94 9cbe 01cf a93e cbf2 923e
00000030: 117d 843e c7e7 f03e b69a 803d f242 e7be
00000040: 93d1 bf3e fcf5 f23c d815 b53c 4f2a fabe
00000050: 4737 0ebe 1589 83be b472 f83e 30d6 ad3e
00000060: fbd2 b43e d732 b73e 3b2e 98be eb56 49be
00000070: b9c5 5bbe 6b7b 64be 938c c43e 670a 463e
00000080: 4f49 bc3e 8061 bcbc 7303 efbe faa1 fabd
00000090: edb4 b13e d8ee 8f3e ac05 033e ecad 10be
000000a0: 3c75 01bf e9d8 9abe ea85 793e 7c32 6ebe
000000b0: 8ec4 563e 1721 253e 8c63 2fbe 7ca1 8f3e
000000c0: c6d6 18be cf98 09bc 665b 57be 2d0f e3be
000000d0: eb97 c23d cac7 003e 524f 86be 6940 903e
000000e0: cf51 d5be 7eac e7be 25b6 94be 3bba 11be
000000f0: f5c5 0fbd b773 e3bd fbc9 843e e172 d6be
00000100: 144b a23d 6b5c 71b8 0a11 073e 15ee 033f
00000110: be94 943e a106 85be dd03 c6be d130 e1bd
00000120: 8bb6 77be 5306 333e 797c 463b 068d c83e
00000130: ec77 463e abab e4bd 428b bb3c 0cf4 0f3e
00000140: 597f c1bd 6780 c63e d2fd b8be a346 7b3e
00000150: 2679 9bbe 54c4 cfbe 650b 94bd cbbb 833e
00000160: 2cb4 af3e 8a98 e53d 4705 21bd c65d cbba
00000170: c271 44be 5cef c7bc 3834 eebb 9186 c83e
00000180: 4145 833e 464f d7be 75dc e43c 65ae a6be
00000190: 06d2 d8bd 8222 bebe ae13 133e c9c2 a8be
000001a0: 21cf 033f 5adb ce3e ff34 a6be 9494 e8be
000001b0: db09 233d 566b edbd 11e9 303e 54ef b9be
000001c0: c652 393e a404 d0be adfa 72be a04f 84be
000001d0: bc91 643e f611 39bc 3e13 e9be 1763 87be
000001e0: e39b 7fbe 7f9f e0be 0af0 be3d 6b78 463e
000001f0: 010d 8bbd 27f7 5dbe ce4d 0abd c6d2 bebe
00000200: 1eae 8ebe cbca 06bd c775 d43e e2ec 2abe
00000210: 0e7b 8b3e a9b1 2bbe 2709 d8bd 6213 edbe
00000220: c433 ce3e 1449 ed3e 4006 a6bb a3cd 963e
00000230: d9c3 c93e 991d 673e 1e7a 6e3e e4ed e1be
00000240: 77b6 e6be 900e b9be cf9a 093e 924f dfbe
00000250: 1d0b b4be a4c1 71be 62b8 ecbe 34c7 2bbc
00000260: 96c2 d13d 65a9 8fbe 05af 9c3e f5b7 35be
00000270: 6431 35be e296 cd3e 9861 e43e 4588 01bd
00000280: 360f abbe 44f5 82be 00f6 5c3d 1f99 9d3e
00000290: 472f 683e eba3 4dbe 5bfe e6be 4aa7 d7be
000002a0: c424 3dbe 4338 093d 2a63 70be 4a8f c6be
000002b0: f935 203d 6b3d c7be bf1e b8be 8034 d3be
000002c0: cb91 1bbe d477 eb3e a172 323e 0962 9bbd
000002d0: 5f5a c93d 8612 4e3e dae1 1d3d 7998 cabe
000002e0: 62d8 8dbe 455b bdbe d296 2ebd cf62 f4be
000002f0: 0ba9 a7bd cf96 51be 127d ed3e b6b5 c43e
00000300: 0d15 8e3e 06d4 3e3c fdef 30be 8229 ec3d
00000310: 51ae b9be e32c 43be d2c7 e9bd fb4b 0bbe
-0.3580142 0.345743 -0.22690804 0.11198676 0.27593654 -0.49557573 0.014679787 -0.20450783
0.32020515 -0.3058184 0.33165744 0.2870086 0.25876668 0.47051832 0.06279509 -0.45168263
0.3746458 0.02965831 0.022105142 -0.48860404 -0.13888274 -0.25690523 0.48525012 0.33952475
0.35317215 0.35780975 -0.2972277 -0.19662063 -0.21462144 -0.22312705 0.383885 0.19339906
0.3677468 -0.02299571 -0.4668232 -0.12237926 0.34708348 0.2811191 0.12795132 -0.14128846
-0.5056951 -0.30243614 0.2436749 -0.23261446 0.20973417 0.16125904 -0.17127818 0.2805289
-0.1492568 -0.008398249 -0.2103096 -0.44347516 0.09501632 0.12576213 -0.26232392 0.2817414
-0.41663978 -0.4524879 -0.29045215 -0.14231198 -0.035100896 -0.11106055 0.2593535 -0.4188452
0.07924476 -5.754495e-05 0.13190094 0.5153516 0.2901973 -0.2598162 -0.38674822 -0.10995639
-0.24190728 0.17482881 0.0030286594 0.39170092 0.19381684 -0.111655556 0.022893552 0.1405794
-0.09448118 0.38769838 -0.3613115 0.24538665 -0.30365866 -0.40579474 -0.07228736 0.25729212
0.34317148 0.11210735 -0.039311673 -0.0015515618 -0.1918402 -0.024406128 -0.0072694086 0.39165166
0.25638774 -0.42052668 0.027937153 -0.32554927 -0.10586934 -0.37135702 0.14362976 -0.3296111
0.5148793 0.40401727 -0.32462308 -0.45425856 0.03980432 -0.11592738 0.17276408 -0.36315405
0.18097982 -0.4062854 -0.23728438 -0.25842 0.22321218 -0.011295786 -0.45522493 -0.26442787
-0.2496181 -0.43871686 0.093231276 0.19381873 -0.0678959 -0.21676312 -0.033765607 -0.37270182
-0.27867216 -0.032908242 0.41496107 -0.16691926 0.2724232 -0.1676699 -0.10548621 -0.4630385
0.4027387 0.46344817 -0.005066663 0.29453763 0.39407232 0.22569884 0.23288772 -0.4412681
-0.45061085 -0.36143923 0.13437961 -0.43615395 -0.3516473 -0.23609024 -0.46234423 -0.010484505
0.102421924 -0.28058925 0.3060228 -0.17745955 -0.17694622 0.40154177 0.44605708 -0.031624097
-0.33410043 -0.25577748 0.05394554 0.30780885 0.22674285 -0.20082061 -0.45115933 -0.4211982
-0.18471056 0.03350092 -0.23475328 -0.38781196 0.039113972 -0.38914046 -0.35960957 -0.41250992
-0.15192334 0.4598986 0.1742654 -0.07587058 0.0983169 0.20124254 0.038545467 -0.39569452
-0.2770415 -0.36983696 -0.042624302 -0.47731635 -0.08186539 -0.20467685 0.46384484 0.38419884
0.27750435 0.01164723 -0.17279048 0.115313545 -0.36265805 -0.19060092 -0.11415066 -0.13603203

decoder_prev.coeff_nets.0.0.0.bias f4 [50]
00000000: ee4f f9be 1272 673e b251 c83e 13c2 91be
00000010: 0a88 213e e82b 8fbd 030a b4bc 1e47 4e3d
00000020: 054e d03e 425a 383d 43ca 8dbe 4793 51be
00000030: dc0d 5e3e a5a0 213e 68d4 8ebc 43b6 9ebd
00000040: 5e5e 2ebe 1572 4abe 3e61 8ebe 530a e63d
00000050: 1a79 003e 573b b73e 8179 08be 9685 dd3b
00000060: aa7a a53e 195f 6e3e c17d af3d afea 283e
00000070: 4464 2c3a d86b e7be f6f1 2cba c2b2 08be
00000080: e20d e03e 9ed1 d73e 0e03 a43d 3142 ee3e
00000090: e096 8dbe df72 d43e be2f e63e 717c bdbb
000000a0: e7f0 cbbe 6284 36be a09b 0ebe 3bfa 293c
000000b0: 7cfb ddbe bc30 c83d 8053 38be e040 1dbe
000000c0: 4675 86be a0a1 01be
-0.48693794 0.22602108 0.3912483 -0.2846838 0.15774551 -0.06990796 -0.02197743 0.05036079
0.40684524 0.04500795 -0.27693376 -0.20466338 0.21684974 0.15783937 -0.017435268 -0.077496074
-0.17028186 -0.19770081 -0.27808565 0.11232438 0.12546197 0.3578746 -0.133276 0.0067603095
0.32320148 0.23278464 0.085689075 0.16495775 0.000657622 -0.45199466 -0.0006597334 -0.1334944
0.43760592 0.42152113 0.08008395 0.46534875 -0.2765417 0.4149389 0.449583 -0.005782657
-0.3983223 -0.17823938 -0.13926554 0.010374601 -0.4335593 0.0977492 -0.18000603 -0.15356779
-0.26261348 -0.12659311

decoder_prev.coeff_nets.0.1.weight f4 [16, 50]
00000000: 7872 e4bd d821 c0bd 8f9b f53c ff1c 9f3d
00000010: 309d f53d 96dc 9cbd b18c 8b3d 1543 48bd
00000020: 0745 f3bd b92e 993b ec8c 67bd dbf9 c9bd
00000030: 74c8 18be a56c 8abd d0b6 bf3d 50c7 b23d
00000040: 2249 c5bc d384 cabd 279a a1bd f293 96bd
00000050: b360 dcbc de91 a03d e1ef 603d ad62 a3bc
00000060: cb1e a13d 5e0f dfbd 565d e8bd 7cbe 8a3c
00000070: b0e4 c3bd 5a92 433d 9e1d de3d 36a3 91bd
00000080: 782d 9ebd 0786 1a3d 7d2a c1bd 6f08 063e
00000090: 3093 68bd cec8 573d b653 e8bd 148a 80bd
000000a0: 8fea dd3c 9ec1 343d 7c37 c93d f390 ca3d
000000b0: 2e90 2d3c fe78 bfbc d2f6 a53c cf7a 37bb
000000c0: b7e6 9e3c cbb3 14be 17d3 0bbe 58b4 c43d
000000d0: d6f6 80bd 662f a63d aaf0 5dbc 29aa 573d
000000e0: 4576 ce3d ec7c 72bd 3ea3 60bc 69a2 343b
000000f0: f3db 413d 9b6d 16be 5fc5 5e3d ce33 6cbd
00000100: b5e3 a63c dae5 983d 784c 2e3c 1040 debc
00000110: 6297 403b 4858 0b3e 2b73 b73d e0db 343d
00000120: 3748 e8bd 7c29 57bd d22d eb3d 5adf da3d
00000130: c4b3 623d 7447 f5bd afad b83d 2550 0dbd
00000140: 9157 eb3d cfa9 cf3d 04fb 293d cd07 65bd
00000150: a132 f53d 4981 b5bd 15eb a13d 8a10 ebbd
00000160: 94c3 debc 543c 06be 602d 6ebd e249 213d
00000170: dd8f debd f6d2 0fbe ae50 9b3d e54c 5a3d
00000180: 661b aebc 1c5d a4bd 91b0 ffbc 8811 3cbd
00000190: cf5a e13d a811 21bd d94f 5cbd 8ce8 e7bd
000001a0: b699 9abd f488 663d edae af3d a4bf eaba
000001b0: e148 2fbd 8255 f13d befe 8c39 0c3d 46bd
000001c0: dcd3 6bbd b796 57bc 776a 8e3d a770 023d
000001d0: b6df ac3d b9b8 f7bb d32e d93d 3044 70bd
000001e0: 5ea9 8abd b61e 5cbd d68d 0fbe 3ac6 d9bd
000001f0: 0893 01be 5907 99bc bf06 82bb 5cf9 54bd
00000200: 8131 b7bd 7cfc d93d 51e9 4abd d9c6 503d
00000210: ea2f 9f3d 3290 c2bd f447 0fbd a2c7 833d
00000220: 8ebf ec3d ad17 3bbc e27a b23d a013 0cbe
00000230: 5d4b debd cb43 dc3d 0e23 fbbc 3a60 0f3e
00000240: 9abc 38bc 0fc2 98bd 444a ee3d fc03 d53d
00000250: 0207 513c 6bc2 c7bd d003 c0bc 8786 a4bd
00000260: ee59 b43d c63e a7bc 6921 d33b 6425 a03d
00000270: 70bc 8a3c 2b9c c0bd bb70 c03d d3e0 6a3d
00000280: 1e22 4ebd f7a0 bc3d 2f8e cd3c 169c 49bd
00000290: 76c4 babd 9c60 efbc b7f8 16be 91ca 783d
000002a0: d480 bf3d fb3d 6cbd 3986 d73d de77 67bd
000002b0: 7e1f d4ba a2ac dcbd 35c4 aabc f577 533d
000002c0: 8fb4 063d 5964 9bbc 350a aabd 7f84 963d
000002d0: 6b83 cc3d 0213 903c fbdc a2bd 518e 2d3c
000002e0: ac58 c0bc d456 d33d 02e9 253d 6657 27b9
000002f0: fed9 adbb b8b6 4e3d 1ef4 f2bb 3dea d23d
00000300: 26cd 773d 7a7c f0bd 4c0f 61bc 3c4c 12be
00000310: 79c1 d2bd 1bba 9f3c a7dd 3b3c d497 f13b
00000320: 7cd2 e93d e880 b5bd a7a6 87bd 371b 0fbd
00000330: c7a1 79bc 352d 0a3c 2702 d93d 8809 17bd
00000340: 42e1 babd 8cbe d63a 1539 013e 23ba 0f3c
00000350: e2b0 723d 8429 0b3c 901f d53d 9181 963d
00000360: 132f bd3d 8a66 23bd 47a6 0bbe 6780 a3bd
00000370: 1dfc cf3c c7b5 b53d e996 99bd 6ee4 d43d
00000380: 5c1c 003c fcb0 13bc cd86 6bbc 51e1 0ebd
00000390: a3bf ec3d ec95 adbc 6352 bd3d c4b3 0bbe
000003a0: 7a8a 9fbd 3299 d03a 3589 c63d f884 663d
000003b0: a3ba ae3c 8bee 1fbe 783b 67bb bd22 c2bd
000003c0: 1842 cfbd 2ca0 b3ba e60a e3bd 35af e13d
000003d0: 28dd aebd 3b01 f83c 789e 823d 965a bcbd
000003e0: defc 393d 602b 1dbd 4a62 b83d a238 293e
000003f0: a680 12bd 5883 22bd ee5c 0c3e f57a 193d
-0.11154646 -0.09381455 0.029981403 0.077692024 0.11992872 -0.07659261 0.06813944 -0.0488921
-0.118784 0.004674759 -0.056530878 -0.09862109 -0.14920217 -0.067590035 0.093610406 0.08729422
-0.024082724 -0.098886155 -0.0789073 -0.07352437 -0.026901579 0.07840322 0.054916266 -0.019944513
0.078672014 -0.10891603 -0.113459274 0.016936533 -0.09565103 0.047746994 0.10845493 -0.07111208
-0.07723516 0.037725475 -0.09431932 0.13089155 -0.056780994 0.052681737 -0.113440916 -0.06276336
0.027089385 0.04412996 0.09825036 0.09890928 0.010593457 -0.023373123 0.020259295 -0.0027996784
0.019397123 -0.1452171 -0.13654743 0.0960471 -0.0629708 0.08114509 -0.013546148 0.05265251
0.10081152 -0.059201166 -0.013710795 0.0027562624 0.0473289 -0.14690249 0.054387446 -0.057666592
0.020372251 0.07465716 0.010638349 -0.027130157 0.0029387106 0.13607895 0.089575134 0.044155
-0.11341899 -0.052529797 0.11483349 0.10687132 0.05534722 -0.11976519 0.090175025 -0.03450026
0.11491311 0.1013981 0.041499153 -0.055915643 0.11972547 -0.0886255 0.079061665 -0.11477764
-0.027192868 -0.13108951 -0.05814874 0.0393771 -0.108672835 -0.14045319 0.07583748 0.05329599
-0.021253299 -0.08025572 -0.031212123 -0.045915157 0.110036485 -0.03932348 -0.053787086 -0.11323652
-0.07548849 0.056282952 0.08578286 -0.0017909897 -0.042794112 0.117838874 0.0002689268 -0.048398063
-0.05757509 -0.013158492 0.069539 0.031845715 0.08441107 -0.0075598625 0.10604634 -0.05865878
-0.067705855 -0.053740226 -0.1401895 -0.10633512 -0.12653744 -0.018680261 -0.0039680894 -0.05199562
-0.08944989 0.10643861 -0.049538914 0.050970886 0.07772811 -0.09500159 -0.03498073 0.06434561
0.11559974 -0.011419219 0.08714844 -0.13679361 -0.10854218 0.10755118 -0.030656364 0.14001551
-0.011275435 -0.07458889 0.11635259 0.104011506 0.012758018 -0.09753879 -0.023439318 -0.080334716
0.08806215 -0.020415675 0.006443192 0.07819632 0.016935557 -0.09404787 0.09396502 0.057343315
-0.050325505 0.09210389 0.025092212 -0.04922112 -0.09119503 -0.029220872 -0.14743315 0.060740057
0.09350744 -0.057676297 0.10523648 -0.0565108 -0.0016183702 -0.107751146 -0.020845512 0.05162807
0.032887038 -0.018968748 -0.08302728 0.073494904 0.099860035 0.017587189 -0.07952305 0.010593013
-0.023479782 0.103192955 0.040505417 -0.0001595892 -0.0053055277 0.050467223 -0.007414355 0.10298584
0.06049838 -0.11742492 -0.013736557 -0.14286894 -0.10290808 0.019497922 0.01146642 0.0073728357
0.114171 -0.088624775 -0.06623583 -0.034938063 -0.015236325 0.00843363 0.10596114 -0.036874324
-0.09124996 0.0016383692 0.12619431 0.008772406 0.05925072 0.008493785 0.10406411 0.073489316
0.09237494 -0.03989271 -0.13637649 -0.07983475 0.025388772 0.08872562 -0.07499487 0.10395132
0.007819261 -0.009014364 -0.014375401 -0.034882847 0.11559989 -0.021189652 0.0924423 -0.13642794
-0.07790084 0.0015914796 0.09694139 0.056279153 0.02132923 -0.1561834 -0.003528325 -0.09479282
-0.10120028 -0.0013704351 -0.11086063 0.11019746 -0.08538276 0.030274024 0.06377882 -0.091969654
0.04540717 -0.038371444 0.09003122 0.1652551 -0.03576722 -0.03967604 0.13707325 0.037470777

decoder_prev.coeff_nets.0.1.bias f4 [16]
00000000: 90de a93d 766a dbbc bb34 bc3d d512 be3b
00000010: 7272 fb3c c610 9b3b 9552 31bd 7d61 46bd
00000020: dcd4 d0bd 9799 b63d 194c 90bd cb5b b33d
00000030: 979d 80bc 267d 893d 402d 083e c0ce 94bd
0.082944036 -0.026784163 0.09189745 0.005800585 0.03069422 0.004732224 -0.043291647 -0.048432816
-0.1019685 0.08916014 -0.070457645 0.087577425 -0.015700145 0.06713323 0.13298512 -0.07265997
