saved_models/rootad_linear_ws_1_stride_1_encoder_alpha_0.5_decoder_alpha_0.5_encoder_gamma_0.5_decoder_gamma_0.5_encoder_lambda_0.5_decoder_lambda_0.5_beta_0.5_lr_0.0001_epochs_1000_hidden_layer_size_50_num_hidden_layers_1.pt (torch, 23117 bytes, 12 tensors)

encoder.coeff_nets.0.0.0.weight f4 [50, 4]
0	0x3ca5156d	0.020151818
1	0x3e977c8d	0.29587212
2	0xbf05298e	-0.5201653
3	0xbe87ea3e	-0.265459
4	0xbd77d4a4	-0.060505524
5	0x3d169c99	0.036770437
6	0x3ce95663	0.028483575
7	0x3ea70709	0.32622555
8	0xbd25002a	-0.04028336
9	0x3e034b7e	0.12821767
10	0xbe168bde	-0.14701793
11	0xbdc0e8cf	-0.09419405
12	0xbed84f32	-0.4224792
13	0xbed8c391	-0.42336705
14	0xbe4e4405	-0.20143135
15	0xbd6ec3a3	-0.058292042
16	0x3e1b121c	0.15143627
17	0x3e9ea8d1	0.30988172
18	0xbef9924e	-0.48744434
19	0xbe4d1b88	-0.20030034
20	0x3e9463b5	0.2898232
21	0x3eddd4d5	0.4332644
22	0xbd8e2570	-0.069407344
23	0x3ed016c4	0.4064237
24	0xbe0d21d6	-0.13782439
25	0x3df0d087	0.117585234
26	0x3edf51c1	0.4361706
27	0xbee224d2	-0.44168717
28	0xbe44722b	-0.19184177
29	0xbe3906f0	-0.18069053
30	0xbe3084cc	-0.17238158
31	0x3ece258c	0.4026302
32	0xbefa2105	-0.48853317
33	0xbe7a772e	-0.24459526
34	0xbe7ba65b	-0.24575178
35	0xbebe9619	-0.3722389
36	0xbeb1843e	-0.34671205
37	0x3f096da6	0.53682935
38	0x3d445c89	0.04793981
39	0x3ded3841	0.11582995
40	0x3e31c43d	0.17360015
41	0xbeb9a0b1	-0.3625541
42	0x3e839153	0.2569681
43	0xbee8e99d	-0.45490733
44	0xbef0158c	-0.4689144
45	0xbe855426	-0.26040763
46	0x3e85d09c	0.2613572
47	0x3e90769a	0.28215486
48	0xbe6e9809	-0.23300184
49	0xbc47f740	-0.012204945
50	0x3e97588a	0.29559737
51	0x3f027a78	0.5096812
52	0x3eba1d7a	0.36350614
53	0xbd612be1	-0.054973487
54	0x3ebcce12	0.3687597
55	0xbe877280	-0.26454544
56	0x3e3c18eb	0.1836888
57	0xbee63e07	-0.44969198
58	0xbe3a9eed	-0.18224688
59	0xbeb09a19	-0.34492567
60	0x3e1afd9f	0.15135811
61	0x3e7cffa7	0.24706899
62	0xbeecdb90	-0.46261263
63	0x3e16f23e	0.14740846
64	0x3ef1e8a7	0.47247812
65	0xbda02bab	-0.07820829
66	0x3e25875f	0.16164921
67	0x3e4c6345	0.19959743
68	0x3ef2b83b	0.47406182
69	0x3edbef63	0.42956075
70	0xbeec1de7	-0.46116564
71	0xbe519be4	-0.20469624
72	0x3e4867ba	0.19570819
73	0x3eb059d2	0.34443527
74	0x3ea3434a	0.31887275
75	0x3ea503f6	0.32229584
76	0x3e0c7a4a	0.13718525
77	0xbefe0101	-0.4961014
78	0x3dc7c57e	0.097544655
79	0xbebf7086	-0.37390536
80	0xbed96aa5	-0.42464176
81	0x3ed4f3e5	0.41592327
82	0x3ee56db9	0.44810274
83	0xbeff5061	-0.49866012
84	0x3cac5d01	0.021040441
85	0x3cc5f441	0.02416432
86	0xbd3994ed	-0.045308042
87	0xbe2be7f3	-0.167877
88	0x3e27241c	0.16322368
89	0xbe3728f7	-0.1788672
90	0x3e0739d7	0.13205658
91	0x3ebb3a8b	0.36568102
92	0x3ee1242f	0.43972918
93	0x3d67a3bb	0.05655263
94	0xbeedb048	-0.46423554
95	0xbe95dece	-0.2927155
96	0x3eb31b26	0.3498165
97	0x3ba770e0	0.0051098913
98	0xbead158b	-0.33805498
99	0xbeba292c	-0.36359537
100	0x3ec27ab7	0.3798425
101	0x3edc951a	0.43082505
102	0xbdc8c928	-0.098039925
103	0xbd24015d	-0.040040363
104	0xbf26e47c	-0.6519239
105	0xbd923152	-0.07138313
106	0xbe9363ae	-0.28786987
107	0xbed6514b	-0.41858897
108	0xbd8a9e73	-0.06768503
109	0x3d10ffdf	0.035400268
110	0xbe4e43a2	-0.20142987
111	0x3ebdf10c	0.37097967
112	0xbec0eca5	-0.37680545
113	0x3eef4d33	0.46738586
114	0x3e9d4257	0.30714676
115	0xbecd4f60	-0.4009962
116	0xbdd3fc4c	-0.10350856
117	0xbd0d8b28	-0.034556538
118	0x3e1321db	0.14368384
119	0x3e51625f	0.20447682
120	0x3e3ae327	0.18250714
121	0x3c268bbf	0.010165154
122	0xbec1f3bd	-0.3788127
123	0x3e6e925a	0.23298016
124	0xbf06c346	-0.52641714
125	0xbe93d068	-0.2886994
126	0xbe6591c7	-0.22418891
127	0xbdf6a74c	-0.12043628
128	0xbe43e41c	-0.19129986
129	0xbeaf46da	-0.34233743
130	0x3c0ad46a	0.008473495
131	0x3e066624	0.13124901
132	0xbe803fbb	-0.25048622
133	0xbde3d9e8	-0.11125547
134	0x3ea78ae0	0.3272314
135	0xbe136036	-0.1439217
136	0x3d3181cb	0.04333667
137	0xbd9109d6	-0.07081954
138	0x3d82e33d	0.063909985
139	0x3e908bb1	0.28231576
140	0x3f0ef4d9	0.5584236
141	0x3ebe2126	0.37134665
142	0x3f099a1f	0.53750795
143	0x3d7508d8	0.059822887
144	0xbeb9d2ef	-0.36293742
145	0xbec61cb1	-0.38693765
146	0x3f08b076	0.5339426
147	0xbc7d1219	-0.015446209
148	0xbeaf7e38	-0.34275985
149	0xbeb57880	-0.35443497
150	0xbf050a80	-0.51969147
151	0xbecd2bbe	-0.40072435
152	0xbde713b5	-0.11283056
153	0x3e8d1cbd	0.27560988
154	0x3ea946a4	0.33061707
155	0xbee48a17	-0.44636604
156	0x3e3f23aa	0.18665949
157	0xbe774e8b	-0.24151056
158	0xbe63c447	-0.22242843
159	0xbeb4b5ac	-0.35294855
160	0xbde3dde8	-0.1112631
161	0xbded2ccd	-0.11580811
162	0xbebac9e7	-0.36482164
163	0xbee15eed	-0.44017735
164	0xbd8dd0c1	-0.06924582
165	0xbbd4ceea	-0.0064943926
166	0xbe80cbee	-0.25155586
167	0x3e2c7f53	0.16845445
168	0xbf0b7c4d	-0.5448654
169	0xbd259441	-0.04042459
170	0x3ea06c89	0.31332806
171	0xbe779463	-0.24177699
172	0x3f0184b1	0.50593096
173	0x3e5f49c8	0.21805489
174	0xbee119a5	-0.43964878
175	0x3ebf8fe4	0.37414467
176	0x3d5d7908	0.054070503
177	0xbe92edb7	-0.28696987
178	0x3ec00324	0.37502396
179	0xbef0cb6a	-0.47030193
180	0xbc2fb771	-0.010724888
181	0xbe714f3a	-0.23565379
182	0x3edbbe3e	0.4291858
183	0x3e2770b2	0.16351584
184	0x3e73971b	0.23788111
185	0x3dd407e4	0.103530675
186	0xbdb75cd3	-0.08953252
187	0xbe566d7c	-0.20940202
188	0xbecff422	-0.40615946
189	0x3e8b6cf7	0.2723157
190	0x3ee43e14	0.44578612
191	0x3ec33ac3	0.3813077
192	0xbe9f36fc	-0.31096637
193	0xbdbc7fda	-0.09204073
194	0xbecb9d9e	-0.3976869
195	0xbe80b1d5	-0.25135675
196	0xbe64192d	-0.22275229
197	0x3e62bdb5	0.2214268
198	0xbed6fb82	-0.4198876
199	0x3bfa5333	0.0076393127

encoder.coeff_nets.0.0.0.bias f4 [50]
0	0xbc553e14	-0.013015289
1	0x3ef01295	0.46889177
2	0xbec39be0	-0.3820486
3	0xbe962eb9	-0.29332522
4	0xbe4ba822	-0.19888356
5	0x3ec7cdfb	0.39024338
6	0xbe60ce4e	-0.21953699
7	0x3f052353	0.52007025
8	0x3e53ad49	0.20671572
9	0xbd0146c5	-0.03156163
10	0x3de4130e	0.11136447
11	0x3ced4489	0.028963344
12	0x3e3d688a	0.1849691
13	0xbdca34dd	-0.09873364
14	0x3db057f5	0.086105265
15	0x3e121b90	0.14268327
16	0xbe94da96	-0.29073018
17	0xbe4205ff	-0.189476
18	0x3f0e90c1	0.55689627
19	0xbeb295dd	-0.34879962
20	0x3e41a6e5	0.18911321
21	0x3ee27683	0.44231042
22	0x3ddc6190	0.10760796
23	0x3e75b0e9	0.23993267
24	0xbee66efb	-0.45006546
25	0x3e3c8b46	0.18412504
26	0xbe6ec625	-0.23317774
27	0xbe0bec26	-0.13664302
28	0xbdf3bdd5	-0.11901442
29	0x3d4466fd	0.04794978
30	0x3dda196e	0.106493816
31	0x3efb83a0	0.4912386
32	0x3dfeb23b	0.124363385
33	0x3f2046ec	0.6260822
34	0x3eeb4052	0.4594751
35	0xbe3a4c36	-0.18193135
36	0x3e6ba552	0.23012283
37	0xbea095eb	-0.31364378
38	0xbe753ff6	-0.2395018
39	0x3d98dfe8	0.07464582
40	0x3e058df1	0.13042428
41	0x3f011293	0.50418967
42	0xbdf9eba3	-0.12203147
43	0x3d3387f3	0.043830823
44	0x3e99c75a	0.30034906
45	0xbede775d	-0.43450442
46	0x3ef876f6	0.4852826
47	0xbedccbed	-0.43124333
48	0xbd918244	-0.07104924
49	0x3da317e3	0.079635404

encoder.coeff_nets.0.1.weight f4 [16, 50]
0	0xbd9670a7	-0.073457055
1	0x3d87e8db	0.066362105
2	0x3df5b604	0.11997607
3	0xbe02fad2	-0.12790993
4	0xbdf5199b	-0.119677745
5	0xbc2b69d8	-0.010462247
6	0xbde29cc7	-0.11065059
7	0x3e01a9ff	0.12662505
8	0x3b310642	0.0027011787
9	0xbdb79bc4	-0.08965257
10	0xbd784122	-0.06060899
11	0x3dda35be	0.10654782
12	0x3ddfe2fd	0.109319665
13	0x3e21dc77	0.15806757
14	0x3da7afff	0.081878655
15	0x3ca65b8c	0.020307325
16	0xbda3e722	-0.080030695
17	0x3db83543	0.08994534
18	0x3e1b88e4	0.15188938
19	0x3c13db14	0.0090244
20	0xbbee2be9	-0.007268418
21	0x3cffaf09	0.031211393
22	0xbddde45d	-0.108345725
23	0x3dbd4241	0.092411526
24	0xbd65aa07	-0.056070354
25	0xbdb7a34c	-0.08966693
26	0x3e5dec91	0.21672274
27	0xbe85546c	-0.2604097
28	0x3c7a91e6	0.015293574
29	0x3d8db37f	0.06919002
30	0x3d2db1ce	0.042405896
31	0x3b50b8a9	0.0031848347
32	0xbda3a820	-0.07991052
33	0x3e578f5a	0.21050778
34	0x3dbe900c	0.093048185
35	0x3dc18232	0.09448661
36	0xbc55a388	-0.013039477
37	0xbd5adbb6	-0.05343219
38	0xbcb44b8f	-0.022008685
39	0x3ceb97f0	0.028758973
40	0xbd1d3fe5	-0.038391013
41	0x3e0a63ea	0.13514677
42	0x3d8ba462	0.06818463
43	0xbc5c1e0e	-0.0134349
44	0x3b4e1fa2	0.003145196
45	0xbd8225e5	-0.06354884
46	0x3e4adf11	0.19811656
47	0xbe566f1d	-0.20940824
48	0x3e1eca18	0.1550678
49	0xbc634862	-0.013872238
50	0xbe10aeb2	-0.14129141
51	0x3d0ab393	0.03386266
52	0xbd9c90e6	-0.07644825
53	0xbd95bf78	-0.073119104
54	0x3daa625e	0.08319543
55	0xbe1634ae	-0.14668533
56	0x3dc3bd77	0.09557622
57	0x3dad52f1	0.084630854
58	0x3d7cf777	0.06175944
59	0xbd281906	-0.04103949
60	0xbd8f6325	-0.07001332
61	0xbd521ac2	-0.05129505
62	0x3d302f8a	0.043014087
63	0xbe0c49dd	-0.13700052
64	0x3cdc1ee5	0.0268702
65	0x3dddb829	0.108261414
66	0xbda292c0	-0.079381466
67	0x3da2b502	0.07944681
68	0x3d1321de	0.03592097
69	0xbd34ea9b	-0.04416905
70	0xbd894642	-0.06702854
71	0x3c9c0113	0.019043481
72	0xbe084cce	-0.13310549
73	0xbcf3fdfb	-0.029784193
74	0x3dc53402	0.0962906
75	0x3dede9fe	0.11616896
76	0xbc9466cd	-0.018115425
77	0x3dab4ebd	0.083646275
78	0x3b779118	0.0037775692
79	0xbda347f3	-0.079727076
80	0xbdd1bbd4	-0.102409035
81	0xbdca59de	-0.09880422
82	0x3e1b8cba	0.15190402
83	0x3dc7f809	0.09764106
84	0xbdb9ff7b	-0.09081932
85	0x3d7e38b2	0.062065788
86	0x3dce896b	0.10084804
87	0x3dc490e6	0.0959795
88	0x3db7181a	0.08940144
89	0x3dc87d63	0.097895406
90	0xbcf8b0dc	-0.03035777
91	0xbd0e02e1	-0.034670714
92	0x3d461e1e	0.048368566
93	0x3dc60812	0.09669508
94	0xbd3fa200	-0.046785355
95	0x3e7caece	0.24676058
96	0x3d8b48cc	0.06800994
97	0x3d8f2786	0.0698996
98	0xbe139597	-0.14412533
99	0xbcf9931e	-0.030465659
100	0x3c9e458d	0.019320274
101	0x3db3374b	0.08750781
102	0xbcb7e8df	-0.022449909
103	0xbdcc6ebb	-0.09982058
104	0x3e1165dd	0.14199014
105	0x3d19b27e	0.03752374
106	0xbdcb232e	-0.09918819
107	0x3d134f3e	0.035964243
108	0xbd91deb4	-0.071225554
109	0xbc3284dc	-0.010895934
110	0xbd901e28	-0.07037002
111	0xbd47289d	-0.048622716
112	0xbdc31df7	-0.095272
113	0x3dd33904	0.10313609
114	0x3c85dd27	0.016340805
115	0x3d51a2b5	0.05118056
116	0xbe52cbb5	-0.2058552
117	0xbbc3f909	-0.005980615
118	0xbdeacd53	-0.11464944
119	0x3dd7d890	0.10539353
120	0xbdc7cc46	-0.09755759
121	0x3d8e38f4	0.06944457
122	0xbda97157	-0.08273571
123	0xbdb3b19e	-0.08774112
124	0xbdab21a7	-0.08356028
125	0xbdeeff35	-0.11669771
126	0x3e1f343c	0.1554727
127	0x3be1a03e	0.0068855574
128	0x3d7d9741	0.061911825
129	0x3de01d2c	0.10943064
130	0x3c426697	0.01186528
131	0xbdcbc43f	-0.0994954
132	0xbd7b6f7b	-0.061385613
133	0x3e02c5de	0.12770793
134	0x3ced36cd	0.028956795
135	0x3d93062c	0.071789116
136	0x3dc852bb	0.097814046
137	0x3cd2e91c	0.02574592
138	0x3d0ddd29	0.034634743
139	0x3c578d6a	0.013156274
140	0x3d0f17e2	0.034934886
141	0xbdac8c54	-0.08425203
142	0xbe065483	-0.13118176
143	0xbdc5d30b	-0.09659394
144	0xbdd0e860	-0.10200572
145	0x3dcf3b49	0.101187296
146	0x3d8470a3	0.06466796
147	0x3b979fe9	0.004627217
148	0xbdaacf79	-0.083403535
149	0x3d83ebe8	0.0644148
150	0x3da38bbd	0.07985637
151	0xbb80d52c	-0.003931662
152	0xbd82973a	-0.063765004
153	0x3d8be845	0.06831411
154	0x3dc50c26	0.09621458
155	0xbdeff317	-0.117162876
156	0x3dee3d23	0.11632755
157	0x3dab7aba	0.083730176
158	0xbc7a1775	-0.015264382
159	0x3d5b65e6	0.053563975
160	0xbd47fccd	-0.048825074
161	0xbdf6fafb	-0.120595895
162	0x3d832f8f	0.064055555
163	0xbd6bd802	-0.057579048
164	0xbd25b0fb	-0.040451985
165	0x3cb9bba8	0.02267249
166	0xbdbfbb24	-0.09361866
167	0xbd6b1ff7	-0.05740353
168	0x3bab07bf	0.0052194293
169	0x3e1591cc	0.14606398
170	0x3c2a30dc	0.010387626
171	0xbd49c07d	-0.049255837
172	0xb9d8746f	-0.0004128548
173	0x3dae8623	0.08521678
174	0x3dc7019f	0.09717106
175	0xbdb9adef	-0.09066378
176	0xb8d15918	-9.9824916e-05
177	0xbe11f669	-0.14254154
178	0xbd58a196	-0.052888475
179	0xbc5fec65	-0.013667201
180	0xbdad71cb	-0.0846897
181	0x3d971dc3	0.073787235
182	0x3d9a3acf	0.07530748
183	0x3c774fc8	0.015094705
184	0xbdd0dac9	-0.1019798
185	0x3d7eb68f	0.06218582
186	0x3bc9a1ef	0.006153337
187	0xbd458004	-0.04821779
188	0x3d865d89	0.06560809
189	0xbdac7169	-0.08420069
190	0xbdd6b509	-0.104837485
191	0xbe094fc1	-0.1340933
192	0xbc9653e3	-0.018350547
193	0x3e2f13e9	0.17097439
194	0xbd938f99	-0.072051235
195	0x3e514762	0.20437387
196	0xbc3b8f97	-0.011447809
197	0x3d4920b4	0.049103454
198	0x3d2ae610	0.04172331
199	0xbdbb1c9b	-0.091363154
200	0x3dc79393	0.097449444
201	0x3cea2c3c	0.028585546
202	0x3e0d0055	0.13769658
203	0xbda52cba	-0.080651715
204	0xbc9fe2dd	-0.019517357
205	0x3dbcd517	0.09220331
206	0x3e494459	0.19654979
207	0xbb2c4c87	-0.002629073
208	0xbe021105	-0.12701805
209	0xbd620e82	-0.055189617
210	0xbe136c71	-0.14396836
211	0xbd82800c	-0.06372079
212	0x3d09caaa	0.03364054
213	0xbe1bb2bb	-0.15204899
214	0x3d4e5997	0.05037841
215	0x3dab87df	0.08375525
216	0x3c5fd6af	0.013662024
217	0x3d8b591a	0.06804104
218	0xbe121d87	-0.14269076
219	0x3ca029c0	0.019551158
220	0x3cfbea04	0.030751236
221	0x3dc2194e	0.09477483
222	0x3cd76aa2	0.026295964
223	0x3d417414	0.04722984
224	0xbd3282c8	-0.043581754
225	0xbe076c11	-0.13224818
226	0xbdeebb26	-0.116567895
227	0x3dd88f0a	0.105741575
228	0xbdc018e0	-0.093797445
229	0x3db165e6	0.08662014
230	0xbe069ac5	-0.13144977
231	0xbdf1970b	-0.11796387
232	0xbe48b96b	-0.19601981
233	0x3cc88d35	0.024481395
234	0xbd9f69b2	-0.07783832
235	0x3e2b97a5	0.16757067
236	0x3d6528d4	0.05594714
237	0x3e0ced7f	0.13762473
238	0x3e0d81b0	0.13819003
239	0xbd4e1c49	-0.050319944
240	0x3bd371b3	0.006452763
241	0xbd10fdb1	-0.03539819
242	0xbd9ef5f5	-0.07761756
243	0xbdeccdde	-0.115627035
244	0x3d3b905b	0.045791965
245	0xbd0b3181	-0.033982757
246	0xbe228d4a	-0.1587421
247	0x3db31b60	0.08745456
248	0x3df654e1	0.12027908
249	0x3dcda08d	0.10040388
250	0xbdb28dfd	-0.08718488
251	0x3e2d8ecb	0.16949002
252	0x3d970969	0.07374842
253	0x3c0b56a2	0.008504542
254	0x3d7bcf3e	0.06147694
255	0xbcc5c90f	-0.024143724

encoder.coeff_nets.0.1.bias f4 [16]
0	0x3d7a6226	0.061128758
1	0xbd652040	-0.05593896
2	0x3d73a607	0.059484508
3	0x3e04b1e5	0.12958486
4	0xbe31ae1c	-0.17351574
5	0x3d886d5b	0.06661483
6	0x3df2c565	0.11854056
7	0x3d6ac9ef	0.057321485
8	0x3dba58cc	0.09098968
9	0x3c324eef	0.010883077
10	0xbd934fd5	-0.07192961
11	0x3ddc2506	0.10749249
12	0x3cda4102	0.026642326
13	0x3e6ec014	0.2331546
14	0xbe421f21	-0.18957187
15	0x3c99de69	0.018782811

decoder.coeff_nets.0.0.0.weight f4 [50, 4]
0	0xbd6ddd3c	-0.058072314
1	0xbed0cab9	-0.40779665
2	0x3e197850	0.14987302
3	0x3eda140a	0.42593414
4	0x3d55f338	0.052233905
5	0xbc52d5d0	-0.01286836
6	0x3e8f48b6	0.27985162
7	0xbe44d549	-0.19221987
8	0x3ec213af	0.37905642
9	0xbf218cd0	-0.6310549
10	0xbebc7493	-0.3680769
11	0xbc15ba5f	-0.009138673
12	0x3ecbe8da	0.3982609
13	0x3dcf4a35	0.10121576
14	0x3e450687	0.19240771
15	0xbe92537e	-0.28579324
16	0x3f19d5ae	0.60091674
17	0xbdc70bfd	-0.097190835
18	0x3dc72dec	0.09725556
19	0x3e4fb108	0.20282376
20	0x3e3636b0	0.17794299
21	0xbd1e0ef6	-0.038588487
22	0x3d6250a6	0.055252694
23	0xbe9defda	-0.30847055
24	0xbe20da48	-0.15708268
25	0x3ecba874	0.39776957
26	0xbe785530	-0.24251246
27	0x3ededc56	0.43527478
28	0xbe972e06	-0.295273
29	0xbda0d5fb	-0.078533135
30	0xbc022cf7	-0.007945291
31	0xbef504fa	-0.4785536
32	0x3cc287ff	0.023746489
33	0xbf03b4dc	-0.51447845
34	0xbd8ae1c5	-0.06781343
35	0xbd37644c	-0.044773385
36	0x3e1a76fe	0.15084454
37	0x3eddf215	0.43348756
38	0xbf3475d4	-0.7049229
39	0x3eed77fe	0.4638061
40	0xbee99e78	-0.45628715
41	0xbef975bc	-0.48722637
42	0x3e5f3b59	0.21799983
43	0x3b3d566a	0.0028890618
44	0xbe058d1f	-0.13042115
45	0xbf22477e	-0.6339034
46	0xbe9682d7	-0.29396698
47	0x3d81a311	0.063299306
48	0xbf0b1f34	-0.5434449
49	0xbf087f8f	-0.5331964
50	0x3d84d8c7	0.064866595
51	0xbe993f89	-0.29931286
52	0xbef3c681	-0.47612384
53	0xbe01f867	-0.12692414
54	0xbe3a2100	-0.18176651
55	0xbf20e387	-0.6284718
56	0xbf240bf3	-0.64080733
57	0x3e88c5c1	0.26713374
58	0xbee86721	-0.4539118
59	0x3e876b47	0.26449034
60	0xbe833358	-0.2562511
61	0xbf146755	-0.5797017
62	0x3ee5166a	0.44743663
63	0xbeea76b8	-0.457937
64	0xbeb750f0	-0.35803938
65	0x3ef9950b	0.48746523
66	0xbd6a976a	-0.057273306
67	0x3f040465	0.51569206
68	0xbd884914	-0.066545635
69	0xbe8b0ceb	-0.27158293
70	0x3d2186c7	0.039435174
71	0xbcdd15ad	-0.026987875
72	0x3f233b1b	0.6376206
73	0xbea4ef8a	-0.32214004
74	0xbd524ba5	-0.05134167
75	0x3de81e33	0.11333885
76	0xbd1814eb	-0.037129324
77	0xbf1bea55	-0.6090444
78	0x3ed86b6e	0.42269462
79	0xbedc4cb0	-0.43027258
80	0x3e792f79	0.24334516
81	0xbf33bccc	-0.70209956
82	0x3f0a45c8	0.5401273
83	0xbf10b9de	-0.5653361
84	0x3ed1911b	0.4093102
85	0xbebc1def	-0.36741588
86	0xbeaa1eb9	-0.33226565
87	0x3db1ad39	0.08675618
88	0x3ee25021	0.44201759
89	0xbe35e273	-0.17762165
90	0xbee646db	-0.44975933
91	0x3f3009bc	0.68764853
92	0x3d953e7d	0.07287309
93	0x3f052118	0.5200362
94	0xbf1961dc	-0.59914947
95	0xbcf1be9c	-0.029509835
96	0xbe861bf5	-0.26193205
97	0x3f04fce3	0.51948375
98	0x3e61085c	0.21975845
99	0xbea10f39	-0.31456926
100	0x3d90b11e	0.070650324
101	0x3d5ff45c	0.0546764
102	0xbea21fd3	-0.31664905
103	0xbe40164e	-0.18758509
104	0xbe94a92a	-0.29035312
105	0x3f205fda	0.6264626
106	0xbf05c1d9	-0.52248913
107	0xbe376ffc	-0.17913812
108	0xbeb62c7d	-0.35580817
109	0x3de0b520	0.10972047
110	0x3e9cb765	0.3060867
111	0x3d4e851c	0.05041991
112	0xbe19cd96	-0.15019831
113	0xbee6e059	-0.4509304
114	0xbe2a6527	-0.16640149
115	0xbe9275fe	-0.28605646
116	0x3f390a07	0.72280926
117	0xbee07038	-0.43835616
118	0xbe48d341	-0.19611837
119	0xbeb07796	-0.34466237
120	0xbe0dfe01	-0.13866426
121	0x3edfea17	0.43733284
122	0x3f1cf305	0.6130832
123	0xbee2d6e0	-0.44304562
124	0x3e055789	0.13021673
125	0x3ebdc603	0.37065133
126	0x3dc1d2ef	0.094640605
127	0x3eff5f60	0.49877453
128	0x3cb9f18b	0.022698184
129	0xbe97ede1	-0.29673675
130	0x3e2e245f	0.17006062
131	0xbe421349	-0.18952669
132	0x3ea09a3e	0.31367677
133	0xbe049a36	-0.12949452
134	0x3eaf4554	0.3423258
135	0x3ef46f89	0.47741345
136	0x3f56d215	0.8391431
137	0xbec5fc6e	-0.3866915
138	0xbe89b7fd	-0.26898184
139	0xbe7e2a28	-0.24820769
140	0xbe292283	-0.16517071
141	0x3f3e754c	0.7439773
142	0xbcf1c294	-0.029511727
143	0xbe738435	-0.23780902
144	0xbdd4e013	-0.10394301
145	0xbe353ae1	-0.17698242
146	0x3e4db58e	0.20088789
147	0xbee34275	-0.4438664
148	0xbedb5913	-0.42841396
149	0xbf0f3cdf	-0.55952257
150	0x3da2490e	0.0792409
151	0x3e847905	0.2587358
152	0xbea2ffeb	-0.31835875
153	0x3da81c98	0.08208579
154	0x3f1388ba	0.57630503
155	0x3d56c1e3	0.052431
156	0xbd71d0c1	-0.059036974
157	0x3c94e575	0.01817582
158	0xbd328975	-0.04358812
159	0x3e76f507	0.24116908
160	0xbf3791e6	-0.71707
161	0x3e99e455	0.30057016
162	0x3e17edd1	0.14836814
163	0xbe4e2215	-0.20130189
164	0x3ef08f64	0.46984398
165	0x3f2b66a8	0.66953516
166	0xbf13432d	-0.5752438
167	0x3d86147d	0.065468766
168	0x3edcbca2	0.43112665
169	0xbf4f7ee0	-0.8105297
170	0x3ef1b38c	0.47207296
171	0xbcbf74a7	-0.023371054
172	0x3e36b0d9	0.178409
173	0xbe94ffb0	-0.29101324
174	0xbf376103	-0.71632403
175	0x3e8e30eb	0.27771696
176	0x3df11d56	0.117731735
177	0xbeb93fa6	-0.36181372
178	0xbe4f421c	-0.20240062
179	0xbe893bd0	-0.26803446
180	0xbe7ff0a0	-0.24994135
181	0xbe4b84b3	-0.1987484
182	0x3f3dde39	0.7416721
183	0xbe43fd57	-0.1913961
184	0x3ee1cc16	0.44101018
185	0x3f170242	0.5898782
186	0x3d7fef71	0.06248421
187	0xbea30df2	-0.31846577
188	0x3f0c8df1	0.54904085
189	0xbc196584	-0.009362582
190	0x3f0f7dfd	0.5605162
191	0xbeeedfe3	-0.46655187
192	0x3df34fd1	0.11880458
193	0x3e8a2f3a	0.26989156
194	0xbf57ae59	-0.8425041
195	0x3d87e7a0	0.06635976
196	0x3ed3bb07	0.41353628
197	0xbeb2409d	-0.3481492
198	0x3e37e5ff	0.1795883
199	0x3dfb6943	0.122759365

decoder.coeff_nets.0.0.0.bias f4 [50]
0	0x3e03ef42	0.12884238
1	0x3f024440	0.5088539
2	0x3eb21fd6	0.34789914
3	0x3ee4223b	0.44557366
4	0xbdaf0fd0	-0.08547938
5	0x3ed360ed	0.41284886
6	0xbeb240a5	-0.34814945
7	0xbebc92e6	-0.36830825
8	0x3c4ca0ae	0.012489481
9	0xbe0f9778	-0.14022624
10	0x3eea5ec6	0.4577543
11	0x3e4bd154	0.19904071
12	0x3e9e6a87	0.3094065
13	0x3e5da621	0.21645404
14	0xbdc8c3d5	-0.09802977
15	0x3b4b0a77	0.003098158
16	0x3d6f7c76	0.058468305
17	0x3e3c3780	0.18380547
18	0x3e781381	0.2422619
19	0xbe200473	-0.15626697
20	0xbd2c5d0a	-0.042080916
21	0x3ecd4201	0.4008942
22	0xbd9958c9	-0.074876375
23	0xbe7bdc52	-0.24595764
24	0x3ea3f1fe	0.32020563
25	0x3ea821e7	0.32838365
26	0xbd850804	-0.064956695
27	0xbd4630b3	-0.048386287
28	0xbe8da014	-0.27661192
29	0xbe4c878f	-0.19973586
30	0x3de66826	0.112503335
31	0xbddc7d44	-0.1076608
32	0x3ebd4aad	0.36971036
33	0xbec23d67	-0.3793747
34	0xbd157b49	-0.036494527
35	0xbc2ad086	-0.010425692
36	0x3eaa3070	0.3324008
37	0x3ec815f0	0.39079237
38	0x3e91b9a6	0.2846195
39	0x3e797efb	0.24364845
40	0xbddb13b5	-0.10697118
41	0xbd01f4dc	-0.031727657
42	0xbe4b89bb	-0.19876759
43	0xbd958389	-0.07300479
44	0x3eff0c72	0.49814183
45	0xbdad69da	-0.08467455
46	0x3c92cb67	0.017919255
47	0xbe2059b1	-0.15659215
48	0x3d9b42ee	0.07581125
49	0x3eb9fec7	0.36327192

decoder.coeff_nets.0.1.weight f4 [16, 50]
0	0xbda39f42	-0.079893604
1	0xbdb85367	-0.09000283
2	0x3df9e867	0.1220253
3	0x3d52f937	0.0515072
4	0xbe69cbf7	-0.22831713
5	0x3d2a083b	0.041511755
6	0x3cd5d619	0.026103066
7	0xbcd390e7	-0.02582593
8	0x3da9a4b3	0.08283367
9	0x3db7fc96	0.08983724
10	0xbd1f7963	-0.038934123
11	0xbd0e6997	-0.034768667
12	0xbd94ff55	-0.07275263
13	0xbdd9d486	-0.10636239
14	0xbeb53cbd	-0.35397902
15	0xbe0044e1	-0.12526275
16	0x3dadf7de	0.084945425
17	0x3d7ee88f	0.062233504
18	0xbe16257e	-0.1466274
19	0xbcd639e7	-0.026150657
20	0x3df0bfac	0.117553085
21	0xbcfe242a	-0.031023104
22	0xbcc0737b	-0.023492565
23	0x3e25d220	0.16193438
24	0xbd852243	-0.065006755
25	0x3d5cec83	0.053936493
26	0x3d646ea2	0.05576957
27	0xbde1f300	-0.11032677
28	0x3dc723e7	0.09723645
29	0xbe460fa6	-0.19341907
30	0x3e431c6f	0.19053815
31	0xbc871803	-0.016490942
32	0x3c05e626	0.008172547
33	0x3d87bf98	0.066283405
34	0xbe76e3fe	-0.2411041
35	0x3e4e36c0	0.20138073
36	0x3e19117b	0.14948075
37	0x3dd95ab9	0.10613007
38	0xbd29e124	-0.041474476
39	0x3df4c500	0.11951637
40	0xbe921fc0	-0.28539848
41	0xbe251e62	-0.16124871
42	0xbe00f884	-0.12594801
43	0x3d4ff178	0.050767392
44	0x3dbc1953	0.09184518
45	0x3ddd6be2	0.10811593
46	0xbe183646	-0.14864454
47	0xbe069a56	-0.13144812
48	0x3d87d676	0.06632702
49	0x3d540407	0.051761653
50	0xbb983921	-0.004645482
51	0xbd8463d0	-0.0646435
52	0xbd7462c6	-0.05966451
53	0x3db34f85	0.087554015
54	0xbde39ebd	-0.11114261
55	0x3d966890	0.073441625
56	0xbd533859	-0.05156741
57	0xbe4434b3	-0.19160728
58	0x3c98a8e8	0.018635228
59	0x3d29b72d	0.041434456
60	0xbc4eee19	-0.012630009
61	0x3c47e30a	0.012200126
62	0xbd22f701	-0.039786343
63	0x3d03093b	0.031991225
64	0x3d0238cc	0.031792447
65	0xbdd3cf06	-0.10342221
66	0x3bde3075	0.006780679
67	0xbd89fe58	-0.06737965
68	0x3df12ee6	0.11776523
69	0x3dce6acb	0.10078963
70	0x3d7bb5a4	0.061452523
71	0xbd16f2f2	-0.036852784
72	0x3bd82ac5	0.0065968954
73	0x3d5a8f36	0.053359233
74	0x3d0c05ef	0.034185346
75	0x3dee3146	0.11630492
76	0xbb6b6ff7	-0.003592489
77	0x3e3b9268	0.18317568
78	0xbdb8f1d1	-0.09030498
79	0xbcbe2c2c	-0.023214422
80	0x3cdba60c	0.026812576
81	0x3d106f17	0.035262194
82	0x3d7b790d	0.06139474
83	0x3c6ac678	0.014329545
84	0x3ccf7ed2	0.025329027
85	0xbcbb8d7a	-0.02289461
86	0xbde6c114	-0.112672955
87	0x3c03435c	0.008011665
88	0x3d12c766	0.035834692
89	0x3c986408	0.018602386
90	0x3dc08794	0.094008595
91	0xbe1d78b3	-0.15378074
92	0x3dec92cf	0.11551439
93	0xbd05eeac	-0.03269832
94	0x3d107484	0.035267368
95	0xbdc936fe	-0.09824942
96	0xbda4b0f2	-0.08041562
97	0xbd4f620e	-0.05063062
98	0x3d54901e	0.051895253
99	0x3bb45dfd	0.0055043683
100	0x3d80322a	0.06259568
101	0xbe006448	-0.12538254
102	0xbc033f8b	-0.008010755
103	0x3d745dbb	0.0596597
104	0xbdb9ba7d	-0.09068773
105	0xbd936f72	-0.07198991
106	0x3d41b470	0.04729122
107	0x3e086716	0.13320574
108	0xbde48e81	-0.11159993
109	0x3d73b2a9	0.059496555
110	0x3ddfb340	0.10922861
111	0x3d970402	0.07373811
112	0xbce360ff	-0.027756212
113	0xbdf92e5e	-0.12167047
114	0xbe6ccb8c	-0.23124522
115	0x3d9842a2	0.07434584
116	0x3d1f9c8f	0.038967665
117	0xbcf03574	-0.029322363
118	0xbcbe57ce	-0.023235228
119	0x3b98ec50	0.0046668425
120	0xbcffd369	-0.031228738
121	0xbdbde4ee	-0.092721805
122	0xb87eb97d	-6.073107e-05
123	0x3d88186d	0.06645284
124	0xbd93540b	-0.07193764
125	0x3c0baa99	0.00852456
126	0xbe085df7	-0.13317095
127	0xbd5ec150	-0.054383576
128	0xbe046742	-0.12930015
129	0x3dd7c7b2	0.10536136
130	0xbd37b9a9	-0.044854794
131	0x3bfca43c	0.007710008
132	0x3cd78f12	0.026313338
133	0xbe96e107	-0.29468557
134	0x3e4e4bb1	0.20146061
135	0x3e0c11ce	0.13678667
136	0x3e0f8b35	0.14017947
137	0xbd2fe371	-0.042941514
138	0x3dbf428f	0.09338867
139	0xbe34e436	-0.1766518
140	0x3dc3ddd4	0.09563795
141	0x3d85a84c	0.06526241
142	0xbdfa3f1b	-0.12219068
143	0x3dacc175	0.084353365
144	0xbc2e5c77	-0.0106421625
145	0x3d2548c6	0.040352605
146	0xbccaff02	-0.0247798
147	0xbe0e81bc	-0.13916677
148	0x3c976cee	0.018484559
149	0xbdaecb1f	-0.08534836
150	0x3e1ca467	0.1529709
151	0x3d715927	0.058922913
152	0x3daf7f6a	0.08569224
153	0xbdab30d3	-0.08358922
154	0xbd92aa15	-0.07161347
155	0xbc8c41b5	-0.017121175
156	0x3da5ec94	0.08101764
157	0x3e202777	0.15640055
158	0xbda5c05e	-0.08093332
159	0xbe082d09	-0.1329843
160	0xbdb99b41	-0.090628155
161	0xbbe7c00e	-0.0070724552
162	0x3d99a3b7	0.07501929
163	0xbcfeda3c	-0.031109922
164	0x3d3a777d	0.04552411
165	0xbc3fb333	-0.011700439
166	0x3db43c31	0.08800543
167	0xbdf04915	-0.11732689
168	0x3da4a309	0.08038909
169	0x3cf90948	0.030399933
170	0x3d9979ee	0.07493959
171	0xbdf7e99d	-0.12105105
172	0x3cdaa2a0	0.026688874
173	0x3c11834f	0.008881404
174	0x3db4c8c6	0.08827357
175	0x3c880591	0.016604217
176	0xbc4347e5	-0.011918996
177	0xbd00c738	-0.03143999
178	0xbddbcd6e	-0.10732542
179	0x3d2b9a13	0.041894984
180	0xbc8fea27	-0.017567707
181	0xbdf65427	-0.120277695
182	0x3dcc3866	0.09971695
183	0xbdf6c6fc	-0.12049672
184	0x3d49ddf4	0.049283937
185	0xbdca36fa	-0.09873767
186	0xbc0a5f33	-0.008445549
187	0x3cba9fa5	0.022781203
188	0x3be7bbf0	0.0070719644
189	0x3cfffbdf	0.031248031
190	0xbe1a8395	-0.15089257
191	0x3d4dc48d	0.050236274
192	0xbd435f1f	-0.047698136
193	0x3d71422b	0.058900993
194	0xbcd45ecc	-0.025924109
195	0xbd219aff	-0.039454456
196	0x3d9afbd5	0.075675644
197	0x3d10fb6b	0.03539602
198	0xbc093577	-0.008374563
199	0xbe140347	-0.14454375
200	0xbd74fbe7	-0.059810545
201	0x3bf432ef	0.007452361
202	0x3cadc989	0.021214264
203	0xbd2ae2cf	-0.041720208
204	0x3e959edc	0.29222763
205	0x3db9aef6	0.09066574
206	0xbe0678a1	-0.13131954
207	0xbdff1e2a	-0.12456925
208	0x3e0ab24d	0.13544579
209	0x3cbfe794	0.023425855
210	0xbe0b8b10	-0.13627267
211	0xbd98ada7	-0.074549966
212	0x3b5c4214	0.0033608722
213	0xbd37e886	-0.044899486
214	0x3e91c91f	0.28473756
215	0xbba10087	-0.004913393
216	0x3e0ae623	0.13564353
217	0x3b8fb2b4	0.0043853167
218	0x3dd572c7	0.10422283
219	0xbe14e30e	-0.1453974
220	0xbd0fd1f9	-0.035112355
221	0x3d72d59b	0.05928574
222	0x3dfc0d35	0.123072065
223	0xbdbbc447	-0.09168296
224	0x3ddd1208	0.10794455
225	0xbdeb6d20	-0.11495423
226	0x3dad0d5b	0.08449813
227	0x3ebe9fd5	0.37231317
228	0xbe08fedb	-0.1337847
229	0x3e58df1a	0.21178856
230	0xbd38add0	-0.045087636
231	0xbe79b368	-0.24384844
232	0xbd7d41ac	-0.061830208
233	0x3d62d909	0.055382762
234	0x3dc28a10	0.094989896
235	0x3d963f6d	0.07336316
236	0x3e1e2747	0.1544467
237	0x3d00eae8	0.031474024
238	0xbd2615cc	-0.04054813
239	0xbd5534c3	-0.05205227
240	0x3e429560	0.19002295
241	0xbe00711d	-0.1254315
242	0x3e43acb5	0.19108851
243	0xbde58c7f	-0.11208438
244	0x3d20dbb8	0.03927204
245	0x3cfd53d1	0.030923756
246	0xbd963f12	-0.073362485
247	0xbd683e23	-0.056699883
248	0xbd536575	-0.05161043
249	0xbcd50061	-0.026001157
250	0xbcca9d18	-0.024733111
251	0xbe07f8ee	-0.13278553
252	0xbdbaa033	-0.09112587
253	0x3d6df909	0.058098827
254	0xbd92e9da	-0.0717351
255	0xbda6a10d	-0.08136187

decoder.coeff_nets.0.1.bias f4 [16]
0	0xbdebfd43	-0.11522915
1	0xbda11d3a	-0.07866903
2	0x3dcf59e7	0.101245694
3	0x3c83b67e	0.01607823
4	0xbd023554	-0.03178914
5	0x3d1ac87c	0.037788853
6	0xbda8a6ca	-0.082349375
7	0xbd2af176	-0.04173418
8	0xbc65f82c	-0.01403622
9	0x3d431846	0.04763057
10	0x3db30d99	0.08742828
11	0x3d3bd3c1	0.04585624
12	0x3db5994f	0.08867132
13	0xbe080835	-0.1328438
14	0xbc86e991	-0.016468795
15	0xb9a595a9	-0.00031582758

decoder_prev.coeff_nets.0.0.0.weight f4 [50, 4]
0	0xbf0c2f9d	-0.5476015
1	0x3e4c1183	0.19928555
2	0xbe9819a5	-0.29707065
3	0x3ea141ad	0.3149542
4	0x3f1e70bf	0.61890787
5	0xbf14b33c	-0.5808599
6	0x3eacd19a	0.33753663
7	0x3e9ccc7f	0.30624768
8	0xbf1e3064	-0.6179259
9	0x3eab9b91	0.33517125
10	0xbec8c7c2	-0.39214903
11	0xbea5031f	-0.32228944
12	0xbe0125de	-0.12612101
13	0xbe1222c6	-0.14271078
14	0x3e5f8135	0.21826632
15	0xbe3df8d8	-0.18551958
16	0xbee783c2	-0.4521771
17	0xbd6f7e01	-0.058469776
18	0x3ebaf217	0.36512825
19	0x3ebda039	0.37036303
20	0x3eb68709	0.356499
21	0xbc720776	-0.014772287
22	0x3d8ca655	0.06867663
23	0xbed14ea1	-0.40880302
24	0x3e851a3a	0.25996572
25	0xbf062c62	-0.5241147
26	0xbe5e7118	-0.2172283
27	0xbe5297ac	-0.2056567
28	0x3f20c513	0.6280071
29	0xbcd64552	-0.026156101
30	0xbdb84dcd	-0.08999214
31	0xbdb37f46	-0.0876451
32	0xbeccb7f7	-0.39984104
33	0xbe1d68b7	-0.15371977
34	0x3e947597	0.28995964
35	0x3c89d06a	0.016823012
36	0x3cd5144b	0.026010653
37	0x3df3d7ec	0.11906418
38	0xbeacfddc	-0.3378743
39	0xbec8e609	-0.39238003
40	0x3f0c050f	0.5469522
41	0x3dbdf9d0	0.092761636
42	0xbbb4a7c5	-0.0055131637
43	0x3e925aad	0.28584805
44	0x3e78b3f9	0.24287404
45	0xbd7099ae	-0.05874031
46	0xbbe16ec9	-0.0068796617
47	0xbd86da4f	-0.06584608
48	0x3ef31097	0.47473595
49	0xbbb44e59	-0.005502504
50	0x3e9da40d	0.30789223
51	0xbec009f1	-0.37507585
52	0xbe3cce48	-0.18438065
53	0x3e93798c	0.2880367
54	0xbcf85ffa	-0.030319203
55	0x3dcd43f3	0.10022726
56	0x3eaf3ac8	0.34224534
57	0xbd09315e	-0.033494346
58	0xbe13a681	-0.14418985
59	0x3dc61ea5	0.09673814
60	0xbe0cfc67	-0.13768159
61	0xbc535edc	-0.012901034
62	0x3da0f082	0.07858373
63	0x3e84eb1b	0.2596062
64	0x3dc46e65	0.095913686
65	0xbeb3c3aa	-0.35110217
66	0xbe0c8431	-0.13722302
67	0xbe71351d	-0.23555417
68	0x3e2427f2	0.16030863
69	0xbec16ab0	-0.3777671
70	0x3eaf9723	0.34294996
71	0x3e7c9251	0.2466519
72	0xbf16f99a	-0.5897461
73	0x3ea9c80a	0.3316043
74	0xbea5f33e	-0.32412142
75	0x3d9bb541	0.07602931
76	0xbe7a0e00	-0.24419403
77	0xbf07c80b	-0.53039616
78	0x3da3499b	0.079730235
79	0xbeb32287	-0.3498728
80	0x3ef9be1d	0.48777857
81	0xbed8fdeb	-0.42381224
82	0x3eab446d	0.33450642
83	0x3e93eb1a	0.28890306
84	0x3f06b5ef	0.5262136
85	0xbd868e9d	-0.0657017
86	0xbe076cdc	-0.1322512
87	0xbea2aa36	-0.31770486
88	0x3ee6165f	0.44938943
89	0xbeb94561	-0.36185744
90	0x3a9a99d2	0.001179511
91	0xbd3ac825	-0.04560103
92	0x3e3221eb	0.17395751
93	0xbef5ac03	-0.47982797
94	0x3eb6f23b	0.35731682
95	0xbecb1b13	-0.39669093
96	0x3ec39ba0	0.3820467
97	0xbe7de539	-0.24794473
98	0xbd740be6	-0.05958166
99	0xbd55480d	-0.052070666
100	0x3d426ae6	0.047465228
101	0xbd7c7127	-0.061631348
102	0xbeb202ad	-0.34767666
103	0x3ecd8008	0.40136743
104	0x3ecd477b	0.40093598
105	0x3ea15d74	0.31516612
106	0x3eafeb49	0.34359196
107	0x3e19a5f4	0.15004712
108	0x3d6baa73	0.0575356
109	0xbe9aaead	-0.30211392
110	0xbebcf8fc	-0.3690871
111	0xbe287273	-0.16449909
112	0xbe3e9ac6	-0.18613729
113	0x3ee76abd	0.45198622
114	0xbe74caf0	-0.2390554
115	0x3dcdd68a	0.10050686
116	0x3dfebfaa	0.12438901
117	0xbe9a9d4c	-0.30198133
118	0xbc86f27d	-0.01647305
119	0x3eec0b40	0.46102333
120	0x3f13412d	0.57521325
121	0x3e8f0b01	0.27938083
122	0xbd1abf5d	-0.037780154
123	0x3c83082f	0.015995113
124	0x3e4599f2	0.19297007
125	0xbdecedb1	-0.115687735
126	0xbe3114b4	-0.17293054
127	0x3f08d98d	0.53456956
128	0x3c9cc7f3	0.019138312
129	0xbe062462	-0.13099816
130	0x3f12810c	0.5722816
131	0x3e03f324	0.1288572
132	0x3df97ccf	0.121820085
133	0xbf00470a	-0.50108397
134	0x3d6183f7	0.055057492
135	0x3e9f4843	0.3110982
136	0xbcba0d51	-0.022711428
137	0xbecec90b	-0.4038776
138	0x3ed3d96b	0.41376814
139	0x3e58e046	0.21179304
140	0x3e2f6009	0.17126478
141	0x3b272eda	0.0025510103
142	0xbc5b5572	-0.013387071
143	0x3e991877	0.29901478
144	0xbe0075e4	-0.12544972
145	0xbe5b2b62	-0.21403268
146	0x3d6358e0	0.05550468
147	0x3dcc1e74	0.09966746
148	0x3e2f2c00	0.17106628
149	0xbe0fa839	-0.14029016
150	0x3d816308	0.06317717
151	0xbe48e11a	-0.1961712
152	0x3e951c10	0.29122972
153	0xbeeaf247	-0.45887968
154	0xbeda4ba9	-0.4263585
155	0x3d842b17	0.06453531
156	0xbe9c5515	-0.30533662
157	0x3e3f0e36	0.18657765
158	0x3e151962	0.14560464
159	0x3e723a05	0.23654945
160	0x3e91b6b4	0.28459704
161	0x3df11571	0.11771668
162	0x3e29c999	0.1658081
163	0xbd10ba68	-0.03533402
164	0xbd4130dc	-0.047165737
165	0x3e79c433	0.2439125
166	0x3e74bd21	0.23900272
167	0xbee05d8d	-0.43821374
168	0xbf076ae3	-0.5289747
169	0xbe91e1b3	-0.28492507
170	0xbeb1c33b	-0.34719262
171	0x3ebf2cbd	0.3733882
172	0xbf25eb16	-0.6481184
173	0xbea8f7f5	-0.33001676
174	0x3e3de3ba	0.18543902
175	0xbe55a477	-0.2086352
176	0x3e25f396	0.16206202
177	0x3ebf9790	0.3742032
178	0x3d827ad9	0.063710876
179	0x3ee06269	0.4382508
180	0xbf25e9f7	-0.6481013
181	0x3ee304c7	0.44339582
182	0x3db44962	0.08803059
183	0xbdb15276	-0.08658306
184	0x3d9f3b84	0.077750236
185	0xbd970c4d	-0.07375393
186	0xbdec3fc0	-0.11535597
187	0xbc921dd4	-0.017836489
188	0xbeb66765	-0.3562576
189	0x3eeba158	0.46021533
190	0x3ea47027	0.32116815
191	0xbd0a6d63	-0.033795726
192	0xbef84021	-0.48486426
193	0xbd18e214	-0.03732498
194	0xbd8d1044	-0.06887868
195	0x3e8813c3	0.26577577
196	0xbc69314e	-0.014232947
197	0x3e1866ef	0.14883016
198	0x3e402d84	0.18767363
199	0xbe689de0	-0.22716475

decoder_prev.coeff_nets.0.0.0.bias f4 [50]
0	0xbe01d1b2	-0.12677649
1	0xbe6e7956	-0.23288473
2	0xbdc215ed	-0.09476838
3	0x3dcb5637	0.099285536
4	0xbd7c71e9	-0.06163207
5	0x3eec9413	0.46206722
6	0xbc705e10	-0.014670864
7	0xbe09e6c8	-0.13466942
8	0x3d38cf1e	0.045119397
9	0xbd72dff8	-0.059295624
10	0xbbc09bc3	-0.0058779432
11	0x3f0ce948	0.5504346
12	0xbc9d0822	-0.019168917
13	0x3ee30b92	0.44344765
14	0x3da4536a	0.080237225
15	0xbd473b39	-0.048640464
16	0x3eb6c2e4	0.35695565
17	0xbe9b9094	-0.30383742
18	0x3d54f387	0.05199006
19	0x3da634ba	0.081155255
20	0x3dba8a01	0.091083534
21	0xbf142041	-0.57861716
22	0xbc87a773	-0.016559338
23	0xbc8ced99	-0.01720314
24	0x3ec9a8b2	0.39386517
25	0x3e46ef1e	0.19427153
26	0x3e2c6902	0.16836932
27	0x3eb5375c	0.35393798
28	0x3d4f3c64	0.050594702
29	0x3ca50b5f	0.020147024
30	0x3eadc096	0.33935994
31	0xbe88f2a6	-0.26747626
32	0xbecda87d	-0.4016761
33	0xbd54a48a	-0.05191473
34	0xbe21e5dd	-0.15810342
35	0x3d6ec32f	0.05829161
36	0x3ed410c9	0.41419056
37	0x3c815545	0.01578773
38	0xbeafe59f	-0.34354874
39	0xbd03848e	-0.032108836
40	0x3ec764ff	0.3894424
41	0xbe3e85a8	-0.18605673
42	0xbe5d7978	-0.21628368
43	0x3e41eef6	0.18938813
44	0x3d0fa44f	0.035068806
45	0xbea93ffa	-0.33056623
46	0x3ee4cd7b	0.4468802
47	0x3de84862	0.11341931
48	0x3ed3bcc0	0.41354942
49	0x3e815863	0.25262746

decoder_prev.coeff_nets.0.1.weight f4 [16, 50]
0	0xbd6c273f	-0.057654615
1	0x3db64d37	0.08901446
2	0x3dceda84	0.10100272
3	0x3d4bd618	0.049764723
4	0x3d579d13	0.052640032
5	0xbdfd5d42	-0.12371303
6	0xbdc75229	-0.09732468
7	0x3e99f1e8	0.30067372
8	0x3d9d6d4f	0.076868646
9	0xbe13147b	-0.14363281
10	0x3da7ece8	0.08199483
11	0x3e0ca07a	0.13733092
12	0x3d362f6e	0.044478826
13	0xbdd9c7ba	-0.10633798
14	0x3e83906a	0.25696117
15	0x3d207a59	0.03917918
16	0xbd2dc306	-0.042422317
17	0xbe1e1281	-0.15436746
18	0x3e3df27d	0.18549533
19	0x3dd562b5	0.104192175
20	0xbccba823	-0.024860447
21	0x3de9ae0c	0.1141015
22	0x3d7e6787	0.06211045
23	0xbd80f459	-0.062966056
24	0xbd710d28	-0.058850437
25	0xbe08845f	-0.13331746
26	0x3c4fcf0d	0.012683642
27	0x3d09fb66	0.033687018
28	0xbe1593be	-0.1460714
29	0x3de63fb8	0.11242622
30	0x3e02f053	0.12786989
31	0xbd038626	-0.032110356
32	0xba50be7a	-0.00079629535
33	0xbe17d24a	-0.14826313
34	0xbd955b71	-0.07292832
35	0x3dcf1944	0.10112241
36	0xbd988d6b	-0.07448848
37	0x3d9358c5	0.07194666
38	0xbdb01b3f	-0.08598947
39	0xbdd69a3f	-0.10478639
40	0xbdbc2880	-0.09187412
41	0xbd89fef2	-0.0673808
42	0x3d508691	0.050909583
43	0x3dc51194	0.096224934
44	0xbd7af499	-0.061268423
45	0x3b9e2bc7	0.004826996
46	0x3d841516	0.06449334
47	0x3d38ec7a	0.045147397
48	0x3dac0d10	0.08400929
49	0x3da124b1	0.078683265
50	0xbd1efac7	-0.03881338
51	0x3c8a59fb	0.01688861
52	0x3ca05af2	0.019574616
53	0x3e0670ae	0.13128921
54	0x3dc75edf	0.09734892
55	0x3b575eb9	0.0032862856
56	0xbd7c76a1	-0.06163657
57	0xbba02658	-0.0048873834
58	0x3da5557b	0.08072945
59	0xbd5a4b7b	-0.05329464
60	0xbc970b0b	-0.018437883
61	0xbc78e4eb	-0.015191297
62	0xbd800d57	-0.062525444
63	0x3dc405a8	0.09571391
64	0x3d2954d6	0.04134067
65	0x3d2fc1bc	0.04290937
66	0xbd519bc9	-0.05117396
67	0xbd32f529	-0.043690834
68	0xbbe3c426	-0.006950873
69	0x3d91f242	0.07126285
70	0xbd63c860	-0.055611014
71	0x3d99d7e0	0.07511878
72	0x3de17611	0.110088475
73	0xbd5fb838	-0.054619044
74	0xbca57476	-0.020197134
75	0x3cd28621	0.025698723
76	0x3d6ffb66	0.05858936
77	0x3d832968	0.06404382
78	0xbd7a7d48	-0.061154634
79	0x3b498f16	0.0030755452
80	0x3d35ed24	0.044415608
81	0xbd9a09d9	-0.075214095
82	0x3d3852e0	0.04500091
83	0xbc62c15c	-0.013840046
84	0xbc6e1d90	-0.014533415
85	0xbd1c775a	-0.03819976
86	0xbd05e06a	-0.03268472
87	0x3dda677f	0.106642716
88	0xbd112cd9	-0.03544316
89	0xbe340562	-0.17580178
90	0xbdde1134	-0.10843125
91	0x3ce960ef	0.028488604
92	0x3e1c0648	0.15236771
93	0xbd0f0960	-0.03492105
94	0x3d5f3648	0.054495126
95	0xbdf273eb	-0.11838516
96	0xbd8470f7	-0.06466859
97	0xbb889812	-0.004168519
98	0xbdb616cc	-0.08891067
99	0xbd65bad7	-0.056086387
100	0xbc4fe230	-0.012688205
101	0xbbca66ee	-0.006176821
102	0xbc8e65b0	-0.017382473
103	0xbd1ba0ce	-0.037995152
104	0xbbb39d84	-0.005481424
105	0x3cafe3b3	0.02147088
106	0xbd92ab16	-0.07161538
107	0x3c854855	0.016269842
108	0xbdaeedb4	-0.08541432
109	0xbd1cd50a	-0.038289107
110	0x3d543b1c	0.051814184
111	0x3df2d1e2	0.11856438
112	0x3d4bd96b	0.049767893
113	0xbd88115f	-0.06643938
114	0xbcff4964	-0.031162925
115	0x3cc6a5f7	0.02424906
116	0xbd8301fb	-0.06396862
117	0x3dd967a6	0.106154725
118	0x3d9f3229	0.07773239
119	0x3db1c9cb	0.08681067
120	0x3ca66999	0.020314025
121	0x3d67004b	0.056396764
122	0xbd1a577b	-0.037681084
123	0x3c726cc6	0.014796441
124	0xbc6a6377	-0.014305941
125	0x3c5dc362	0.013535352
126	0x3d2be617	0.041967478
127	0x3db23b38	0.08702701
128	0xbd8fe46c	-0.0702599
129	0x3ce52a33	0.027974224
130	0xbcaf8a20	-0.021428168
131	0xbc3c81ac	-0.011505526
132	0x3d0b5b3f	0.034022566
133	0xbca193fc	-0.019723885
134	0xbd06cba8	-0.032909065
135	0xbe20d498	-0.15706098
136	0x3d6362da	0.055514194
137	0xbdd48da3	-0.103785776
138	0xbcede24b	-0.029038569
139	0xbc9be9bf	-0.019032357
140	0xbdc02154	-0.09381357
141	0x3d0759d5	0.033044655
142	0x3c33e3c7	0.010979599
143	0xbd60f7e7	-0.054923918
144	0x3d334dfe	0.04377555
145	0x3ce9f4ab	0.02855905
146	0xbd077241	-0.033067945
147	0x3d74ff89	0.05981401
148	0x3c5f306a	0.013622383
149	0xbc31d53e	-0.010854064
150	0xbc052bac	-0.008128088
151	0x3d35ea63	0.04441298
152	0x3e2c2823	0.16812186
153	0xbddcc743	-0.10780194
154	0xbd792fef	-0.06083673
155	0x3c819cc4	0.015821822
156	0xbd490c0f	-0.049083766
157	0xbc8fc234	-0.017548658
158	0xbd89b53d	-0.067240216
159	0xbd90aea4	-0.0706456
160	0x3d110478	0.035404652
161	0xbda1f8f2	-0.07908811
162	0xbe3f5e39	-0.18688287
163	0xbdcf53e8	-0.10123426
164	0x3d836e0a	0.06417473
165	0x3df39c22	0.11895014
166	0xbda07ced	-0.07836328
167	0x3d2e2cdb	0.042523246
168	0xbc98e330	-0.018663019
169	0x3ddcb672	0.10776986
170	0xbd870d08	-0.065942824
171	0x3d6f9eec	0.05850117
172	0x3d95cf2d	0.07314906
173	0x3cfb3676	0.030665617
174	0xbe2002f4	-0.15626127
175	0x3c7332fd	0.0148436995
176	0x3d430bcf	0.047618683
177	0xbd0816cc	-0.033224866
178	0xbe08de1a	-0.13365975
179	0xbd8b18fc	-0.06791875
180	0x3d81c958	0.063372314
181	0x3d1a3ad4	0.03765376
182	0x3e3d0160	0.18457556
183	0x3d070198	0.032960504
184	0xbd7e488e	-0.062080912
185	0x3db59b5a	0.088675216
186	0x3dcd9655	0.10038439
187	0xbe1aa640	-0.15102482
188	0x3e216641	0.15761663
189	0x3960a88d	0.00021425095
190	0x3d312169	0.043244753
191	0x3d1ba587	0.037999656
192	0xbd712ffc	-0.058883652
193	0x3d71e3d1	0.059055153
194	0xbd233ef8	-0.039854974
195	0x3dd10d79	0.10207648
196	0x3d9aab14	0.07552162
197	0xbd7b8f5b	-0.06141601
198	0xbde3d3a8	-0.111243546
199	0x3d7b92dc	0.061419353
200	0xbe27f621	-0.16402484
201	0xbd6abbad	-0.057307888
202	0xbde40a47	-0.11134773
203	0x3d89c40a	0.067268446
204	0x3d33ca7f	0.043894287
205	0x3deab840	0.11460924
206	0xbcd9e5c4	-0.026598819
207	0xbe4624d0	-0.1934998
208	0xbc7abde5	-0.015304063
209	0x3da9e804	0.082962066
210	0xbe257669	-0.16158451
211	0xbd6ef7ff	-0.058341976
212	0xbe6ca4f0	-0.23109794
213	0x3dc99495	0.09842793
214	0x3da80699	0.082043834
215	0xbcff9e3a	-0.031203378
216	0x3dee811a	0.11645718
217	0x3cfb4382	0.030671839
218	0x3d725f0d	0.05917268
219	0x3d934c2c	0.07192263
220	0xbd654b75	-0.055980165
221	0xbe4e07c2	-0.20120147
222	0xbe1a7dd5	-0.15087064
223	0x3d29c973	0.041451883
224	0x3da7ad6e	0.08187376
225	0xbd6e0d07	-0.058117893
226	0x3d2a89a1	0.04163516
227	0xbd33828d	-0.043825675
228	0xbdf0b96e	-0.11754118
229	0x3d2a470f	0.041571673
230	0xbe15d7d7	-0.14633118
231	0x3e63cdcf	0.22246478
232	0xbdff9e68	-0.124813855
233	0xbb8916b2	-0.0041836137
234	0x3d987816	0.074447796
235	0xbd886ea3	-0.06661727
236	0x3da32129	0.07965309
237	0xbd248bbc	-0.040172324
238	0xbba2cfae	-0.004968605
239	0xbdeec4b1	-0.1165861
240	0x3d862657	0.065502815
241	0x3df95b92	0.12175669
242	0x3d361969	0.044457827
243	0xbe1a2019	-0.15051307
244	0x3e94d07b	0.29065308
245	0xbe2a829e	-0.16651389
246	0xbd1bc9f2	-0.038034387
247	0xba68e462	-0.00088841293
248	0xbdb7e624	-0.08979443
249	0xbd60a832	-0.054847904
250	0xbc920b46	-0.017827641
251	0xbbf84f2b	-0.007577797
252	0x3c40c544	0.011765782
253	0x3db24b3e	0.087057576
254	0xbd9a9ed3	-0.075498246
255	0x3cd24a9a	0.025670338

decoder_prev.coeff_nets.0.1.bias f4 [16]
0	0xbd363e5a	-0.044493057
1	0x3d80bcd2	0.062860146
2	0xbc2e48b1	-0.010637448
3	0x3de78d36	0.11306231
4	0xbd55cbf2	-0.05219645
5	0x3c1b2c9b	0.009471084
6	0xbcdb98b5	-0.026806215
7	0x3c175bd1	0.009238199
8	0x3ccb242d	0.024797523
9	0xbda97f18	-0.08276194
10	0x3d76a20a	0.060213126
11	0x3d903770	0.07041824
12	0x3d2433f7	0.04008862
13	0x3dce942c	0.10086855
14	0xbcdfe9d1	-0.027333172
15	0x3d4af299	0.049547765
