saved_models/rootad_linear_ws_1_stride_1_encoder_alpha_0.5_decoder_alpha_0.5_encoder_gamma_0.5_decoder_gamma_0.5_encoder_lambda_0.5_decoder_lambda_0.5_beta_0.5_lr_0.0001_epochs_2000_hidden_layer_size_50_num_hidden_layers_1_us_mean_encoder.npy (npy, 512 bytes, 1 tensors)

array f8 [48]
-0.3143262267112732 0.23125207424163818 0.6464238166809082 -0.38021793961524963 -0.21905803680419922 0.42663222551345825 -0.5528444647789001 -0.5881271362304688
0.14686554670333862 0.20173659920692444 0.4475446045398712 -0.22768747806549072 -0.10485458374023438 -0.1453005075454712 0.033053457736968994 0.511286735534668
0.20341646671295166 0.14979073405265808 -0.23877555131912231 0.21163785457611084 -0.2466311752796173 0.04372304677963257 0.13519324362277985 0.1425585150718689
0.3445247411727905 0.5663628578186035 -0.09500375390052795 0.16477593779563904 0.0782344788312912 0.5243312120437622 -0.1289720982313156 0.05586300790309906
0.15643250942230225 0.19853614270687103 -0.2799881100654602 -0.17960131168365479 0.05790448188781738 -0.2723546624183655 0.018120065331459045 -1.021677851676941
-0.34424149990081787 -1.114216685295105 0.041036661714315414 -0.42735520005226135 -0.3216528296470642 -0.227519229054451 0.1240750178694725 -0.02035313844680786
00000000: 0000 00c0 eb1d d4bf 0000 0000 ab99 cd3f
00000010: 0000 0000 81af e43f 0000 00a0 7d55 d8bf
00000020: 0000 0000 180a ccbf 0000 0040 f14d db3f
00000030: 0000 00e0 e6b0 e1bf 0000 0000 f0d1 e2bf
00000040: 0000 0080 7dcc c23f 0000 0040 81d2 c93f
00000050: 0000 0020 92a4 dc3f 0000 0000 dd24 cdbf
00000060: 0000 0000 c0d7 babf 0000 0000 3599 c2bf
00000070: 0000 0000 62ec a03f 0000 0000 765c e03f
00000080: 0000 0000 8d09 ca3f 0000 00c0 572c c33f
00000090: 0000 0080 3290 cebf 0000 0000 f316 cb3f
000000a0: 0000 0040 9c91 cfbf 0000 0000 de62 a63f
000000b0: 0000 0020 034e c13f 0000 0080 5b3f c23f
000000c0: 0000 0080 b10c d63f 0000 0000 a51f e23f
000000d0: 0000 0080 2a52 b8bf 0000 00c0 6017 c53f
000000e0: 0000 00c0 2c07 b43f 0000 0040 52c7 e03f
000000f0: 0000 0060 2882 c0bf 0000 0080 139a ac3f
00000100: 0000 0000 fb05 c43f 0000 00e0 a169 c93f
00000110: 0000 0040 53eb d1bf 0000 0000 2dfd c6bf
00000120: 0000 0000 a8a5 ad3f 0000 0040 426e d1bf
00000130: 0000 0000 118e 923f 0000 00e0 ca58 f0bf
00000140: 0000 0080 0d08 d6bf 0000 00e0 d4d3 f1bf
00000150: 0000 00e0 c102 a53f 0000 00a0 c959 dbbf
00000160: 0000 00c0 f595 d4bf 0000 00a0 591f cdbf
00000170: 0000 0060 61c3 bf3f 0000 0000 74d7 94bf
