saved_models/rootad_linear_ws_1_stride_1_encoder_alpha_0.5_decoder_alpha_0.5_encoder_gamma_0.5_decoder_gamma_0.5_encoder_lambda_0.5_decoder_lambda_0.5_beta_0.5_lr_0.0001_epochs_1000_hidden_layer_size_50_num_hidden_layers_1.pt (torch, 23117 bytes, 12 tensors)

encoder.coeff_nets.0.0.0.weight f4 [50, 4]
0	0x3ef63142	0.48084456
1	0x3f03bb53	0.5145771
2	0xbe682671	-0.22670914
3	0x3ee82891	0.4534345
4	0xbe3b1cc5	-0.18272693
5	0x3eafbc68	0.3432343
6	0xbed2299d	-0.41047373
7	0x3e636260	0.22205496
8	0x3ebcfeb1	0.36913064
9	0xbe953aa4	-0.29146302
10	0x3e719644	0.23592478
11	0x3df99d9c	0.12188265
12	0x3ebc3188	0.3675654
13	0x3da5eba4	0.081015855
14	0x3e4c70ad	0.19964857
15	0xbd44cdb8	-0.04804775
16	0x3ec48829	0.38385132
17	0x3c56a95d	0.013101903
18	0xbe645472	-0.22297838
19	0x3e2601ae	0.16211578
20	0xbe933936	-0.28754586
21	0xbd9559ea	-0.0729254
22	0xbe999470	-0.2999606
23	0x3ec0fc20	0.37692356
24	0xbeb6c6b7	-0.35698482
25	0xbe61302d	-0.21991034
26	0xbe69602d	-0.22790594
27	0xbec277b0	-0.3798194
28	0x3e505375	0.20344336
29	0xbf16c35e	-0.58891857
30	0x3f1de05c	0.6167047
31	0xbe9ebae9	-0.31001976
32	0x3ec75a17	0.3893592
33	0x3e019b55	0.1265691
34	0xbe96336f	-0.29336116
35	0x3e942cb4	0.28940356
36	0x3e30eba2	0.17277387
37	0x3efa442f	0.48880145
38	0x3c513593	0.012769121
39	0xbe4ca5f5	-0.19985183
40	0x3d092867	0.033485796
41	0xbdaed80b	-0.08537301
42	0x3e560baf	0.20902894
43	0x3ee7f888	0.45306802
44	0x3ea8ec3e	0.32992738
45	0xbe23c94a	-0.15994754
46	0x3e327608	0.17427838
47	0x3dcb97b2	0.09941043
48	0x3d78dfe7	0.060760405
49	0xbe5c730a	-0.21528259
50	0xbf2b2e40	-0.66867447
51	0xbd5a1af7	-0.053248372
52	0xbf025a98	-0.50919485
53	0x3ef34b5a	0.47518426
54	0x3da7cea9	0.08193714
55	0x3e2a4cb1	0.16630818
56	0x3e4b2cb1	0.19841267
57	0xbdfb02f3	-0.12256422
58	0x3f098b2a	0.5372797
59	0xbea286f8	-0.31743598
60	0x3dd16f4d	0.10226307
61	0xbeb788b2	-0.35846478
62	0x3d4c6066	0.04989662
63	0xbe37d63b	-0.17952816
64	0x3da2ab4f	0.07942831
65	0xbe322f12	-0.17400768
66	0x3eb97b38	0.3622682
67	0xbeab89e2	-0.33503634
68	0xbee45f09	-0.44603756
69	0xbe85a514	-0.26102507
70	0x3f09f1c3	0.53884524
71	0x3dcf492d	0.10121379
72	0x3ee49c0b	0.446503
73	0xbec37c4e	-0.38180774
74	0xbecd7f65	-0.40136257
75	0xbe89549b	-0.2682236
76	0xbe956996	-0.29182118
77	0x3ebdb861	0.37054732
78	0x3deb71c3	0.11496308
79	0x3f10283d	0.563114
80	0xbed465b2	-0.41483837
81	0xbea68c0a	-0.32528716
82	0x3ea0d5c9	0.31413105
83	0xbe194d02	-0.14970782
84	0x3e806ed5	0.25084558
85	0xbd349ce7	-0.044094946
86	0x3e7a85f8	0.24465168
87	0xbe9439b0	-0.28950262
88	0xbeb03567	-0.34415743
89	0x3e884bf4	0.26620448
90	0xbdbf9743	-0.09355023
91	0xbe39f7ae	-0.18160889
92	0x3e2c3efe	0.16820905
93	0x3ee8bc5a	0.454562
94	0xbf002947	-0.50062984
95	0xbe98195a	-0.29706842
96	0x3f10fe45	0.56637985
97	0xbe317101	-0.17328264
98	0xbe0d1bdd	-0.1378016
99	0xbf0d1ee6	-0.5512527
100	0xbe93984b	-0.28827128
101	0x3e1036a7	0.14083348
102	0xbc448742	-0.011995139
103	0xbe73d4d4	-0.23811656
104	0x3d0e621a	0.034761526
105	0xbe83d30d	-0.25746956
106	0xbed062b3	-0.40700302
107	0xbe0e234a	-0.13880649
108	0xbec06052	-0.37573487
109	0xbea59d3b	-0.3234652
110	0x3eae0d24	0.339944
111	0x3e32f40c	0.17475909
112	0x3e69787b	0.22799866
113	0xbef1afd8	-0.4720447
114	0xbe8927cc	-0.26788175
115	0xbe1db8a6	-0.15402469
116	0x3e874fff	0.2642822
117	0xbedc5b1f	-0.4303827
118	0xbe9e27eb	-0.3088983
119	0xbe8cc658	-0.27495074
120	0xbe07e247	-0.13269912
121	0xbe8f2fa4	-0.27966034
122	0xbd5cc08a	-0.053894557
123	0xbe8b8cd4	-0.2725588
124	0xbeac3853	-0.33636722
125	0xbe870156	-0.26368207
126	0xbdffca61	-0.124897726
127	0xbe9f59d3	-0.31123218
128	0x3ef03759	0.46917227
129	0xbe324e63	-0.17412715
130	0x3ed2d542	0.41178328
131	0x3e1b50c4	0.15167528
132	0xbef3d429	-0.47622803
133	0x3e6f84b8	0.23390472
134	0xbe66d270	-0.22541213
135	0xbe2a54d8	-0.16633928
136	0xbee14eeb	-0.44005522
137	0xbeb8e282	-0.36110312
138	0x3e13a7a5	0.1441942
139	0xbe1a9382	-0.15095332
140	0x3e338ca3	0.17534117
141	0xbee8187a	-0.45331174
142	0x3ed803be	0.42190355
143	0xbe73e837	-0.23819052
144	0xbd48b7de	-0.049003474
145	0xbcd6e63c	-0.026232831
146	0x3ec0899c	0.37604988
147	0x3ebb789f	0.36615464
148	0x3f13f228	0.57791376
149	0xbec5271f	-0.3850641
150	0x3e1f959f	0.1558442
151	0xbebeee00	-0.37290955
152	0xbdc4810b	-0.095949255
153	0xbf052ba5	-0.5201972
154	0x3eb4821e	0.35255522
155	0xbeb69cc4	-0.35666478
156	0x3ea01768	0.31267858
157	0x3e467b2a	0.19382921
158	0x3e403019	0.18768348
159	0xbea0e38b	-0.31423602
160	0x3f094cea	0.53632987
161	0x3ddb2ea9	0.10702259
162	0x3c8ae2e5	0.016953895
163	0xbeeb6fa2	-0.45983607
164	0x3e41634d	0.18885536
165	0xbe459979	-0.19296826
166	0xbe9c8ba5	-0.3057529
167	0x3eda362b	0.42619452
168	0xbbf113b7	-0.0073570865
169	0xbead78ec	-0.3388132
170	0xbe903dd1	-0.28172162
171	0xbde2807b	-0.11059662
172	0x3eab2456	0.3342616
173	0xbe42a25f	-0.19007252
174	0xbebf9e2c	-0.37425363
175	0xbe5b6905	-0.2142678
176	0xbf05c2c5	-0.5225032
177	0x3e6021d7	0.21887909
178	0x3e9cdcaf	0.30637118
179	0xbf040488	-0.51569414
180	0x3e357914	0.17721969
181	0x3f028dc3	0.5099756
182	0x3db07bfa	0.08617397
183	0xbe553bea	-0.20823637
184	0x3e80cb35	0.25155035
185	0x3e951d79	0.29124048
186	0x3eae0cd9	0.33994177
187	0xbde22742	-0.11042644
188	0xbe38bec1	-0.18041517
189	0x3db2de09	0.08733756
190	0xbc7759d2	-0.015097098
191	0xbdd0e142	-0.101992145
192	0x3e63d696	0.22249827
193	0x3ef0df5e	0.47045416
194	0x3cdb0ea8	0.026740387
195	0xbdcd3319	-0.10019512
196	0xbd1b3f6c	-0.03790228
197	0x3cfc991b	0.030834725
198	0x3cbb2bcd	0.022848034
199	0x3e15a521	0.14613773

encoder.coeff_nets.0.0.0.bias f4 [50]
0	0xbec610b8	-0.3868463
1	0xbd643f21	-0.055724267
2	0x3f0fd832	0.5618926
3	0x3e4385c2	0.19093993
4	0x3d8b1e97	0.06792944
5	0xbea18651	-0.31547788
6	0xbe949a5b	-0.29024014
7	0xbef831ba	-0.48475438
8	0xbe0b292e	-0.13589928
9	0x3e68cab2	0.22733572
10	0x3edc5880	0.4303627
11	0x3ec5b951	0.38617948
12	0xbeaca1d1	-0.33717206
13	0xbe3e9f2a	-0.18615404
14	0x3d0db6ae	0.034598045
15	0x3f085b4a	0.53264296
16	0x3e22ce2e	0.15898964
17	0xbd95706d	-0.07296834
18	0x3e81341f	0.25235078
19	0xbe1baae5	-0.1520191
20	0xbebf62fc	-0.37380207
21	0x3ef2a26c	0.47389543
22	0xbe18f16f	-0.1493585
23	0xbb645175	-0.0034838591
24	0xbed6bd7e	-0.41941446
25	0x3edd48dc	0.4321965
26	0x3f130c86	0.57440984
27	0x3e8312fb	0.25600418
28	0xbed68d4c	-0.41904676
29	0xbf0611ec	-0.52371097
30	0xbedc2cd5	-0.43002954
31	0x3ee8aee1	0.45445922
32	0x3e44bd41	0.1921282
33	0x3ef88548	0.48539186
34	0x3ed6f59e	0.41984266
35	0x3e65c290	0.22437501
36	0xbbcf5e75	-0.006328399
37	0xbec4f849	-0.38470677
38	0xbec9f0ff	-0.39441678
39	0xbefc9044	-0.49328816
40	0x3e96f2d0	0.29482126
41	0xbe2dd6a4	-0.1697641
42	0xbd0d610d	-0.034516383
43	0xbe4664af	-0.19374345
44	0x3bca1942	0.0061675617
45	0xbe916c71	-0.28403047
46	0xbe8f05e7	-0.2793419
47	0x3e25e958	0.16202295
48	0xbd829aa2	-0.0637715
49	0x3ed7431a	0.42043382

encoder.coeff_nets.0.1.weight f4 [16, 50]
0	0x3dac8ff3	0.08425894
1	0x3c1e721c	0.0096707605
2	0xbd3fbb41	-0.04680944
3	0xbe078ac0	-0.13236523
4	0xbe2c234d	-0.16810341
5	0xbde84799	-0.11341781
6	0x3da310b5	0.07962171
7	0xbe204cbe	-0.15654275
8	0x3d6ce8ed	0.057839323
9	0xbceac6a0	-0.028659165
10	0x3db4608f	0.088074796
11	0xbe1140de	-0.14184901
12	0x3d97ea58	0.074177444
13	0xbe174e16	-0.14775881
14	0x3e2c1685	0.16805466
15	0x3e028ca7	0.12748967
16	0x3da13040	0.07870531
17	0xbd7873da	-0.06065736
18	0xbbc8fcc3	-0.006133647
19	0xbcc10e13	-0.023566281
20	0xbb9fffd1	-0.0048827906
21	0xbe1cd9b1	-0.15317418
22	0xbd31f5b8	-0.043447226
23	0x3e09bb11	0.13450266
24	0x3de7836c	0.113043636
25	0xbd13dfd1	-0.03610212
26	0xbdbe35ba	-0.09287591
27	0x3c1dd62e	0.009633584
28	0x3da17d84	0.07885268
29	0xbd5d6cea	-0.054058947
30	0x3db37f40	0.087645054
31	0xbd8465fa	-0.06464763
32	0xbda6a296	-0.081364796
33	0xbd997dcf	-0.07494699
34	0xbd4eea98	-0.050516695
35	0x3d3aa76a	0.045569815
36	0xbd828672	-0.063733
37	0x3e23d129	0.15997757
38	0x3e4c8d3c	0.19975752
39	0xbe236458	-0.15956247
40	0xbd8530a5	-0.06503419
41	0xbd82811e	-0.063722834
42	0xbdc90a92	-0.09816469
43	0xbe2426b7	-0.16030394
44	0x3cb45213	0.022011792
45	0x3e7f5337	0.24934088
46	0x3c3c4095	0.011490007
47	0xbc3f0e96	-0.011661192
48	0x3d27dc43	0.040981542
49	0xbd9ed44b	-0.077553354
50	0xbcc65f98	-0.024215505
51	0x3d960d8a	0.07326801
52	0xbd1b2ec4	-0.037886396
53	0xbd914241	-0.07092715
54	0xbcabbe8b	-0.020964881
55	0x3d9995a0	0.07499242
56	0xbd17834e	-0.036990456
57	0x3ab9dd3b	0.0014180312
58	0x3c3e91a3	0.011631402
59	0x3d1a5100	0.037674904
60	0x3df1d447	0.11808067
61	0x3d96edc7	0.07369571
62	0xbd4d2bd9	-0.050090645
63	0x3d1f83bd	0.038943995
64	0x3d477afa	0.048701264
65	0x3d6226b8	0.055212706
66	0x3d08d242	0.033403642
67	0x3daac33d	0.0833802
68	0x3b88d79c	0.0041760933
69	0xbd8d8f1f	-0.06912064
70	0xbe13efec	-0.14446992
71	0xbb8e4bfd	-0.0043425546
72	0x3e4c065d	0.19924302
73	0x3dfecbc1	0.12441207
74	0xbbc5d2b1	-0.0060370793
75	0xbd8ef7ee	-0.069808826
76	0xbd5f69cc	-0.054544255
77	0xbe3e83aa	-0.18604913
78	0xbdb9f909	-0.09080703
79	0x3d32e7ed	0.043678213
80	0x3e4f2ff6	0.2023314
81	0x3d20e90b	0.039284747
82	0xbdc72122	-0.097231165
83	0xbd5d9fe4	-0.05410756
84	0x3d4d0aa8	0.05005899
85	0xbdc8c248	-0.09802681
86	0xbbe41c9c	-0.0069614183
87	0x3d7b8933	0.06141014
88	0x3d042b52	0.032267876
89	0xbdf05535	-0.11735002
90	0xbc88624c	-0.016648434
91	0x3c84c37e	0.0162065
92	0xbd222420	-0.039585233
93	0xbd3cd813	-0.046104502
94	0x3ce3d138	0.027809724
95	0xbe25619f	-0.1615052
96	0x3e1bf704	0.15230948
97	0xbd144127	-0.036194947
98	0xbe129271	-0.14313675
99	0x3d9999e9	0.07500059
100	0x3db4ce66	0.0882843
101	0xbd978690	-0.07398713
102	0x3ded5846	0.115891024
103	0x3da2aa17	0.07942598
104	0xbd67a1a9	-0.056550656
105	0xbd973ccc	-0.07384643
106	0x3c5fe075	0.013664355
107	0xbe01f70d	-0.12691899
108	0xbc8fc76e	-0.01755115
109	0x3dc7a304	0.0974789
110	0xbceabde1	-0.028654994
111	0xbd816717	-0.06318491
112	0xbdd77b29	-0.10521538
113	0xbd04c742	-0.03241659
114	0x3c3822e0	0.011238784
115	0x3d6aecdf	0.057354804
116	0xbda7a213	-0.0818521
117	0xbcfcf101	-0.030876638
118	0xbdcc3924	-0.09971836
119	0x3d5c32d2	0.053759404
120	0x3e40aa98	0.18815076
121	0x3d8ee0e8	0.06976491
122	0xbe9c7a2e	-0.30561966
123	0xbdfcdcbf	-0.123467915
124	0xbd535bf4	-0.051601365
125	0xbd993464	-0.07480696
126	0x3d338483	0.043827545
127	0x3c8567f4	0.01628492
128	0x3e3d14ed	0.18465014
129	0xbd7ad11c	-0.06123458
130	0x3dd24d4c	0.102686495
131	0xbd89e568	-0.06733209
132	0xbce6235c	-0.028093033
133	0x3dce901b	0.1008608
134	0x3c987b6c	0.01861354
135	0x3cec7e5a	0.028868843
136	0xbdd5dbde	-0.10442327
137	0xbe0c9524	-0.13728768
138	0x3dbbafd4	0.09164396
139	0x3da9b8ef	0.082872264
140	0x39ea0a23	0.0004463951
141	0x3cb7d61a	0.022440959
142	0x3dff2764	0.12458685
143	0x3e040697	0.12893139
144	0x3da82a1c	0.08211157
145	0xbe0c76d1	-0.137172
146	0xbe31b553	-0.17354326
147	0x3d466ed7	0.04844555
148	0xbc1fda15	-0.009756585
149	0xbcfa012c	-0.030518137
150	0xbd929b9b	-0.07158586
151	0x3ca745f6	0.020419102
152	0x3d81b7aa	0.06333859
153	0x3d1f2c60	0.03886068
154	0x3c9bc610	0.019015342
155	0xbd6caeb7	-0.05778381
156	0xbe06d08c	-0.13165492
157	0xbe048a5a	-0.12943402
158	0xbd7f83d2	-0.062381573
159	0xbcaa2bef	-0.020772902
160	0x3ca55113	0.02018026
161	0xbc28922d	-0.010288757
162	0x3dcf0c87	0.10109811
163	0x3c3476f4	0.011014689
164	0x3d22781b	0.039665323
165	0xbcbd3141	-0.023094775
166	0xbd8a753e	-0.067606434
167	0x3dbbdd87	0.09173112
168	0xbd848bf9	-0.0647201
169	0xbc4b525b	-0.012409772
170	0x3dda84d3	0.106698655
171	0xbcfdf382	-0.030999903
172	0xbe311e7a	-0.17296782
173	0x3daccdc7	0.084376864
174	0x3d71d692	0.05904252
175	0x3c1ef2e0	0.009701461
176	0x3c7d191d	0.015447882
177	0xbd9656cf	-0.07340776
178	0xbbbc00ad	-0.0057373852
179	0x3daed7e9	0.08537275
180	0x3d9298ff	0.07158088
181	0x3bcbd820	0.0062208325
182	0xbcdc21b0	-0.026871532
183	0x3d986dd9	0.07442827
184	0xbd960e72	-0.07326974
185	0x3de98397	0.11402052
186	0x3cdea965	0.027180383
187	0x3d0ff9d3	0.03515036
188	0x3dddb82b	0.10826143
189	0x3d9d381c	0.07676718
190	0xbd2428e8	-0.040078074
191	0x3dc3cf9c	0.09561083
192	0x3c6c38fd	0.014417884
193	0x3da21b5f	0.07915377
194	0x3cc22212	0.023697887
195	0xbced2ee5	-0.028953025
196	0xbd92d9a1	-0.07170416
197	0x3df00d86	0.117213294
198	0x3dad67dd	0.08467076
199	0xbd870417	-0.06592577
200	0xbda28244	-0.079350024
201	0xbe23e42e	-0.16005012
202	0xbe462acb	-0.19352262
203	0xbcb591fa	-0.022164334
204	0xbd86d4cb	-0.06583556
205	0x3eab9005	0.33508316
206	0x3dc400c1	0.09570456
207	0x3e3520ef	0.17688344
208	0xbd13d446	-0.03609111
209	0xbe367326	-0.17817363
210	0xbdcfbdf7	-0.10143655
211	0xbd41fe58	-0.0473617
212	0x3e1fdfb6	0.15612683
213	0xbd611e19	-0.054960344
214	0x3dc54978	0.09633154
215	0xbe2fffba	-0.17187396
216	0xbde5baad	-0.11217246
217	0x3dd8348b	0.10556897
218	0x3d7d47f6	0.061836205
219	0x3e48d47c	0.19612306
220	0x3e5c2a3d	0.21500488
221	0xbc4f9c5b	-0.012671555
222	0xbba3a4a0	-0.00499399
223	0xbcddd425	-0.027078697
224	0xbd36bc25	-0.044613022
225	0xbd1b4161	-0.037904147
226	0xbe409362	-0.18806222
227	0xbddbd070	-0.10733116
228	0x3d20c812	0.039253302
229	0x3d925980	0.07145977
230	0x3dc125e0	0.09431052
231	0xbe325e4e	-0.17418787
232	0xbdf304d5	-0.11866156
233	0xbdb657fd	-0.08903501
234	0xbe430e72	-0.19048479
235	0xbdd901a2	-0.105960146
236	0x3e3f4aba	0.1868085
237	0xbcdb08e2	-0.026737634
238	0x3e1823ba	0.14857379
239	0x3e65317e	0.22382161
240	0xbcc55af5	-0.024091223
241	0x3d8acfb9	0.06777901
242	0x3cb9c276	0.022675734
243	0x3da2d581	0.07950879
244	0xbde492d9	-0.111608215
245	0x3e3735fd	0.17891689
246	0x3d980005	0.07421879
247	0x3d238960	0.039925933
248	0xbd8a8756	-0.067640945
249	0xbe2f0324	-0.17091042
250	0xbdbcf8e3	-0.09227159
251	0x3d9b36da	0.075788215
252	0x3d95a8f5	0.073076166
253	0x3e2332f3	0.15937404
254	0x3d7eb935	0.062188346
255	0xbd690574	-0.056889966

encoder.coeff_nets.0.1.bias f4 [16]
0	0x3dde2181	0.10846234
1	0x3cefe792	0.029285226
2	0xbd805240	-0.06265688
3	0xbd0801c1	-0.033204798
4	0x3d0f2819	0.03495035
5	0x3d9aba3e	0.07555054
6	0xbcc08245	-0.023499617
7	0xbd48fa9a	-0.049067117
8	0xbd94adeb	-0.07259735
9	0xbd10df6e	-0.03536933
10	0xbe105047	-0.14093123
11	0x3da7280a	0.08161934
12	0x3d8bf3d0	0.06833613
13	0x3e407098	0.18792951
14	0xbe4b8763	-0.19875865
15	0x3d3a77cb	0.0455244

decoder.coeff_nets.0.0.0.weight f4 [50, 4]
0	0xbf132c05	-0.57489043
1	0x3ec0f70a	0.37688476
2	0x3ef2e16f	0.47437617
3	0x3ed39697	0.41325828
4	0x3e8fbd34	0.28074038
5	0x3eae5640	0.3405018
6	0x3dc550fa	0.09634586
7	0x3e6022b2	0.21888235
8	0xbeeaa8ad	-0.45831814
9	0x3e8691fb	0.2628325
10	0xbe814311	-0.2524648
11	0xbc2bc818	-0.010484718
12	0xbf414d13	-0.7550823
13	0xbbf04e44	-0.0073335487
14	0xbed37b2c	-0.4130491
15	0xbe92ea71	-0.2869449
16	0xbe9a6448	-0.30154634
17	0xbe1d7110	-0.15375161
18	0x3dd6ffeb	0.10498031
19	0x3f0e9cb0	0.55707836
20	0x3f06447b	0.5244824
21	0x3e5b88d1	0.2143891
22	0xbf139150	-0.57643604
23	0xbedcf200	-0.4315338
24	0x3d5d93eb	0.054096144
25	0x3f005566	0.5013031
26	0xbf2debac	-0.6793773
27	0x3d082d60	0.033246398
28	0x3f3ae855	0.7301076
29	0xbe18996a	-0.14902273
30	0xbe25c288	-0.16187489
31	0x3e2f292a	0.17105547
32	0x3e73f553	0.23824053
33	0x3e19fc0f	0.15037559
34	0xbf49e893	-0.78870505
35	0x3d92c152	0.07165779
36	0xbe9f1967	-0.31074068
37	0x3ebd266f	0.36943385
38	0xbdee6fbe	-0.11642407
39	0x3e6f6dc1	0.23381712
40	0x3d19df6f	0.0375666
41	0x3d81a0f6	0.06329529
42	0xbd344ed5	-0.044020493
43	0x3e81ef24	0.25377762
44	0xbe129ce9	-0.14317669
45	0xbf126245	-0.571812
46	0xbd906df9	-0.070522256
47	0x3ea7346e	0.32657188
48	0xbd7d37b9	-0.06182072
49	0x3dd38eb4	0.10329953
50	0xbea9c732	-0.33159786
51	0x3ea482f5	0.32131162
52	0x3e68fbff	0.22752379
53	0x3da4d484	0.08048347
54	0xbeb8e430	-0.36111593
55	0xbf016fc8	-0.5056119
56	0x3e8a7fca	0.2705062
57	0xbeff7b30	-0.49898672
58	0x3f15043a	0.58209574
59	0xbe922e86	-0.2855112
60	0x3e0198b0	0.12655902
61	0x3f361f1d	0.71141225
62	0x3e55f2ac	0.20893353
63	0x3e993797	0.29925224
64	0xbed7562d	-0.42057934
65	0x3f2bd17c	0.6711652
66	0xbdb73d1a	-0.08947201
67	0xbe5d31fa	-0.21601096
68	0x3ee1f284	0.44130337
69	0xbf012486	-0.50446355
70	0xbc08db79	-0.008353108
71	0x3ee12b00	0.4397812
72	0xbf08792a	-0.5330988
73	0xbecc14d5	-0.39859644
74	0x3ebdb4ea	0.3705209
75	0x3d532294	0.05154665
76	0x3c3b15da	0.011418784
77	0xbece40e7	-0.40283892
78	0xbd582557	-0.052769985
79	0xbe0d07a9	-0.13772453
80	0xbdae3593	-0.08506312
81	0xbed598be	-0.41718096
82	0x3ea8f501	0.32999423
83	0x3d847aa3	0.064687036
84	0xbf1a7f32	-0.60350335
85	0x3f1376c3	0.5760309
86	0x3ded2334	0.1157898
87	0x3e4ed591	0.20198657
88	0xbe612c84	-0.21989638
89	0xbe3d9388	-0.1851331
90	0x3f175e24	0.5912802
91	0x3eaa1419	0.33218458
92	0xbe7d71c4	-0.2475043
93	0x3eb8f82c	0.3612684
94	0xbe166ce0	-0.1468997
95	0x3dc65668	0.096844494
96	0x3e9acb0d	0.3023304
97	0x3edf84f1	0.43656114
98	0xbeb95245	-0.3619558
99	0x3eba9c80	0.36447525
100	0xbea11df6	-0.3146817
101	0x3d963738	0.07334751
102	0xbe45c82b	-0.1931464
103	0xbd24d8bb	-0.040245753
104	0xbd204edf	-0.039137717
105	0xbe24e5af	-0.16103242
106	0xbd84b194	-0.06479183
107	0x3d7a49fe	0.06110572
108	0x3f29cd0e	0.66328514
109	0x3e143adc	0.14475578
110	0x3de200cd	0.11035309
111	0x3d24f3ed	0.04027169
112	0x3ecbd3b3	0.3980995
113	0x3d51424b	0.051088613
114	0x3d4939b8	0.04912731
115	0x3d6e4f35	0.058181006
116	0xbe8c4df6	-0.2740323
117	0xbeec083d	-0.46100035
118	0xbce34ab2	-0.027745578
119	0xbe5e387f	-0.21701239
120	0x3da07276	0.07834332
121	0xbe0aa1cb	-0.13538282
122	0xbc3277fd	-0.010892865
123	0x3f0e9c3c	0.55707145
124	0xbed60a57	-0.41804764
125	0x3ece486f	0.40289637
126	0x3f22f4c2	0.6365472
127	0xbe7ca06e	-0.24670574
128	0xbdde1bd6	-0.10845153
129	0xbe705b99	-0.23472442
130	0xbf284e52	-0.6574451
131	0xbe637dc1	-0.2221594
132	0x3df3decd	0.1190773
133	0xbd6e1fce	-0.0581358
134	0xbe7512de	-0.23932979
135	0xbe364ceb	-0.1780278
136	0xbe78a1d1	-0.24280478
137	0x3f3c35c2	0.7351953
138	0xbe8b2167	-0.2717392
139	0xbe9fc2cf	-0.31203315
140	0x3e35139d	0.17683263
141	0xbe5772e0	-0.21039915
142	0x3f1fb3ad	0.6238354
143	0x3e8802e9	0.2656472
144	0x3f139157	0.57643646
145	0xbf205cc5	-0.62641555
146	0x3ecd06ac	0.40044153
147	0x3e771315	0.24128373
148	0xbefd9ec7	-0.495352
149	0x3f1289bb	0.5724141
150	0x3d9bfd11	0.07616628
151	0x3e0beb77	0.13664041
152	0x3f04347c	0.51642585
153	0xbe864f1f	-0.2623224
154	0xbec256ce	-0.37956852
155	0x3d7f89fa	0.062387444
156	0x3dfab4dd	0.12241528
157	0xbe5255ec	-0.20540589
158	0x3e90ca30	0.28279257
159	0xbeacbb1d	-0.33736506
160	0x3e95b36c	0.2923845
161	0x3ec54766	0.38531035
162	0xbdd117b3	-0.102095984
163	0xbe9264ba	-0.28592473
164	0x3eaf91c6	0.34290904
165	0x3ce1f294	0.02758149
166	0x3e30cd00	0.17265701
167	0x3ebd5b98	0.36983943
168	0x3f00a625	0.50253516
169	0xbea1fd0f	-0.3163838
170	0xbda23efc	-0.079221696
171	0xbdc5efac	-0.096648544
172	0x3e385aad	0.1800334
173	0x3f30f0c2	0.6911737
174	0xbe046be5	-0.12931783
175	0xbd0459c5	-0.032312173
176	0xbd8eeb03	-0.06978419
177	0xbe8217bf	-0.25408742
178	0x3ed1dc5e	0.4098844
179	0x3e148740	0.14504719
180	0xbf140910	-0.5782633
181	0xbd074e00	-0.03303337
182	0xbddae3ec	-0.10688004
183	0x3ca83065	0.020530889
184	0x3dd7fa21	0.10545755
185	0xbf4e8ed7	-0.80686706
186	0x3d03a21d	0.032137025
187	0xbdd61ad2	-0.10454334
188	0xbe9d2cd0	-0.30698252
189	0x3f1de6e9	0.61680466
190	0xbe625f7e	-0.2210674
191	0x3ea2ec3e	0.31820863
192	0xbced3ec3	-0.028960591
193	0xbeab257c	-0.33427036
194	0xbc3daf4b	-0.011577438
195	0x3eba0c50	0.3633752
196	0xbe1b7bc3	-0.1518393
197	0xbecb8f3a	-0.3975771
198	0x3f318755	0.69347125
199	0x3eb3b783	0.35100946

decoder.coeff_nets.0.0.0.bias f4 [50]
0	0xbd3d4dcf	-0.046216782
1	0x3ea5e901	0.3240433
2	0xbce619d1	-0.028088482
3	0xbe92104b	-0.28528056
4	0x3d9211c5	0.071322955
5	0x3c81a2ab	0.015824636
6	0xbd542284	-0.05179073
7	0xbc315ba7	-0.010825074
8	0xbe18eb51	-0.14933516
9	0x3ed4b693	0.41545543
10	0x3ed1dfcd	0.4099106
11	0x3e3eda06	0.18637857
12	0x3da5613e	0.08075188
13	0x3e3336d8	0.1750139
14	0xbe6e7ea0	-0.23290491
15	0xbd32af22	-0.04362405
16	0xbe02dd74	-0.1277979
17	0xbe562bea	-0.2091519
18	0xbe96df5d	-0.29467288
19	0x3eace370	0.3376727
20	0x3ebe7824	0.37201035
21	0xbe91c911	-0.28473714
22	0x3e280a63	0.16410212
23	0x3e7a50ba	0.24444857
24	0x3f0ca2f8	0.5493617
25	0x3e9d6692	0.30742317
26	0x3ed2aa97	0.41145775
27	0xbd982e5d	-0.07430718
28	0x3ebfb2ee	0.374412
29	0x3ede6f59	0.43444327
30	0xbeaf7f87	-0.34276983
31	0xbe61e63b	-0.22060482
32	0x3dafbcad	0.08580909
33	0x3e84cf32	0.25939327
34	0xbe0e9b81	-0.13926508
35	0x3cb349fb	0.021885863
36	0xb9b0c163	-0.0003371342
37	0x3dca0a07	0.09865194
38	0xbe08379d	-0.13302465
39	0x3e3aadbb	0.18230335
40	0x3e95beaa	0.29247028
41	0xbe6d1275	-0.23151572
42	0xbcc6e656	-0.024279755
43	0x3c15cf77	0.009143702
44	0x3d86dc16	0.06584947
45	0x3ed94650	0.42436457
46	0x3d96e954	0.073687226
47	0xbcb9b118	-0.022667453
48	0x3ec9641a	0.39334184
49	0xbe613804	-0.21994025

decoder.coeff_nets.0.1.weight f4 [16, 50]
0	0xbc36a94f	-0.011148765
1	0xbc28990c	-0.0102903955
2	0x3cc2314c	0.023705147
3	0x3e55620e	0.20838186
4	0xbcfb4af5	-0.03067539
5	0x3d663d01	0.05621052
6	0x3d6ae1e0	0.057344317
7	0xbb8a7d12	-0.0042263353
8	0x3bd0c1d1	0.006370761
9	0xbdc87437	-0.09787791
10	0x3d31ef78	0.043441266
11	0x3d07a7a8	0.033118874
12	0xbdf04caa	-0.117333725
13	0x3d7524db	0.0598496
14	0x3cdb875d	0.026797945
15	0xbc3b253e	-0.011422453
16	0x3dbfd1ec	0.09366211
17	0x3db8be34	0.09020653
18	0x3cb7bc6d	0.022428716
19	0x3d141c17	0.0361596
20	0x3d69641f	0.05698025
21	0x3d2c2308	0.042025596
22	0x3dc486a1	0.09595991
23	0x3c2d90ad	0.010593575
24	0xbd2f013c	-0.042725787
25	0xbcee4f9f	-0.0290907
26	0x3aad9ae4	0.0013245014
27	0x3dd0df7c	0.10198876
28	0xbd16a47f	-0.03677797
29	0xbda63a00	-0.08116531
30	0xbe1d5bdb	-0.15367071
31	0x3cbb4245	0.022858748
32	0xbd44a499	-0.048008535
33	0xbc7597d8	-0.014989816
34	0xbe058dc0	-0.13042355
35	0xbda9de3a	-0.082943395
36	0x3d262e55	0.04057153
37	0xbbee352b	-0.0072695217
38	0x3d20537f	0.039142128
39	0xbd46fdb8	-0.04858181
40	0xbd9bfe70	-0.076168895
41	0x3d986afc	0.07442281
42	0x3a9ba8a2	0.0011875818
43	0x3bb7a8f6	0.0056048585
44	0xbe0b6e04	-0.13616186
45	0x3d7c5f45	0.061614294
46	0xbdd9246f	-0.10602652
47	0x3dbd134a	0.09232195
48	0x3c7abe7f	0.015304207
49	0xbd23b727	-0.03996959
50	0xbc43e061	-0.011955352
51	0xbd2cf061	-0.04222143
52	0x3d72dad7	0.059290733
53	0xbb79a972	-0.0038095382
54	0xbb877d8f	-0.004134841
55	0x3caaa26a	0.020829398
56	0xbbbc72c7	-0.005750987
57	0x393be2c4	0.00017918186
58	0x3cf6f034	0.030143835
59	0x3b997089	0.0046826047
60	0x3e036bef	0.12834142
61	0xbc190179	-0.00933873
62	0x3d320c37	0.04346868
63	0x3d46363d	0.04839157
64	0x3afa9f50	0.0019120965
65	0x3c9a07bf	0.018802522
66	0x3d284e17	0.041090097
67	0xbd899125	-0.06717137
68	0x3cad86af	0.021182386
69	0xbcd39156	-0.025826138
70	0xbdd5f673	-0.10447397
71	0xbc90c6b3	-0.017672872
72	0xbc220618	-0.009889148
73	0xbe221aae	-0.1583049
74	0xbdb1fe32	-0.08691062
75	0xbc8369b8	-0.016041622
76	0x3da87fab	0.08227476
77	0x3a532eb7	0.0008055972
78	0x3dab0c9e	0.08352016
79	0xbca107bc	-0.019657008
80	0x3d913c67	0.07091599
81	0xbc7f2977	-0.015573851
82	0xbc3414c2	-0.010991277
83	0xbe1da218	-0.15393865
84	0xbcb5541d	-0.022134835
85	0xbc8dcd83	-0.01730991
86	0xbb178c75	-0.002312449
87	0x3d227795	0.039664824
88	0xbbbbcb92	-0.0057310546
89	0xbd1fd7a0	-0.039023995
90	0xbc99ce17	-0.01877503
91	0xb9831545	-0.00025002114
92	0xbd753fe3	-0.05987538
93	0x3c2ddf5f	0.010612338
94	0x3ca481b5	0.02008138
95	0x3cc00675	0.023440579
96	0x3d28ead7	0.041239586
97	0xbd25e72c	-0.040503666
98	0xbc7bd3b1	-0.015370295
99	0xbd591016	-0.052993856
100	0xbdaa868b	-0.08326443
101	0x3d46c6c4	0.0485294
102	0xbce801e8	-0.028321221
103	0x3db71d6e	0.0894116
104	0x3c9061e8	0.01762481
105	0x3dd044b8	0.10169357
106	0x3cf44062	0.029815856
107	0xbd9c262a	-0.07624467
108	0x3c95427e	0.018220183
109	0xbd53b645	-0.051687498
110	0x3c40cd56	0.011767706
111	0xbb93a1a7	-0.0045053544
112	0xbcc0dc2c	-0.023542486
113	0xbd014373	-0.031558465
114	0x3d976706	0.07392697
115	0x3d84123d	0.06448791
116	0xbd9e2c18	-0.07723254
117	0x3c841e95	0.016127864
118	0xbcaf7bdf	-0.021421371
119	0x3cfcb507	0.03084804
120	0x3db7a826	0.08967619
121	0x3d0a1e4b	0.033720296
122	0xbce6941e	-0.0281468
123	0x3d564109	0.052308116
124	0xbc3bd5e7	-0.0114645725
125	0x3c134229	0.008987942
126	0xbc3c8abb	-0.011507685
127	0xbd613a59	-0.054987285
128	0xbdecd16c	-0.115633816
129	0xbdbee621	-0.09321237
130	0x3d0c1a78	0.03420493
131	0x3d52acf4	0.051434472
132	0xbd32fb88	-0.04369691
133	0xbd22c720	-0.03974068
134	0xbcdd8c4e	-0.027044442
135	0xbc2b5c2d	-0.010458988
136	0x3da1da8d	0.079030134
137	0x3cd1f942	0.02563155
138	0xbd1ca3b8	-0.038242072
139	0xbda460ca	-0.080262735
140	0x3ca643e8	0.020296052
141	0x3d99f8bb	0.07518145
142	0x3db60e45	0.088894404
143	0xbd19a430	-0.037510097
144	0xbdb87640	-0.090069294
145	0x3d8d3bd7	0.06896179
146	0x3c3ec206	0.0116429385
147	0xbd712e87	-0.058882263
148	0xbcfb65d2	-0.0306882
149	0x3b142dfb	0.0022610414
150	0x3cf46549	0.029833453
151	0xba20641c	-0.0006118433
152	0xbd163c75	-0.03667875
153	0x3c92d382	0.01792312
154	0xbc3caa0f	-0.0115151545
155	0xbc116300	-0.008873701
156	0xbabdc2ef	-0.001447765
157	0x3d689562	0.056783088
158	0x3c8be90b	0.017078897
159	0x3bf4b574	0.00746792
160	0xbcff749c	-0.031183533
161	0x3c9fc88e	0.019504812
162	0xbbde7545	-0.006788882
163	0xbcd26f84	-0.02568794
164	0xbcc5bef8	-0.024138913
165	0xbb4a4245	-0.0030862254
166	0xbda7cecc	-0.0819374
167	0x3d0fe5b2	0.035131164
168	0xbd54f64e	-0.051992707
169	0xbc9e4861	-0.019321622
170	0x3d77632e	0.06039732
171	0x3b6fff44	0.0036620656
172	0xbc9e52fe	-0.019326683
173	0x3d9f04be	0.077645764
174	0xbd8bb050	-0.06820738
175	0xbdc53b15	-0.0963041
176	0xbd845846	-0.06462149
177	0xbc879666	-0.016551208
178	0xbd9a1fcf	-0.07525598
179	0xbdf8249f	-0.1211636
180	0xbe00e6fd	-0.12588115
181	0xbc1862bd	-0.009300885
182	0x3b259c35	0.0025270109
183	0x3dfef8a8	0.12449771
184	0x3cf6f51a	0.03014617
185	0xbbf8e568	-0.0075957067
186	0x3ca92505	0.020647535
187	0xbd789da2	-0.060697205
188	0xbc1b8d99	-0.009494209
189	0xbc8094d9	-0.015695976
190	0x3daa6c6f	0.08321463
191	0x3d4f52ac	0.05061595
192	0xbd2f3bab	-0.042781513
193	0xbce34924	-0.027744837
194	0xbb4414e1	-0.0029919671
195	0x3dccac14	0.09993759
196	0x3d1ce933	0.038308334
197	0x3d67f82f	0.05663317
198	0x3b883d36	0.0041576875
199	0x3c94f108	0.018181339
200	0x3e62601f	0.2210698
201	0x3d4e461b	0.050359827
202	0x3ed5f50a	0.41788512
203	0x3e697af8	0.22800815
204	0x3d153ecc	0.03643684
205	0x3e17f940	0.14841175
206	0xbdb08a34	-0.0862011
207	0x3ed32d2b	0.41245398
208	0xbe069dfd	-0.13146205
209	0xbd1b1db6	-0.03787013
210	0xbd0ecf57	-0.034865703
211	0xbd517e9a	-0.051146127
212	0xbda3b8ff	-0.079942696
213	0xbd13ef2c	-0.036116764
214	0x3c246769	0.0100344205
215	0xbe1d5720	-0.15365267
216	0x3d7b16aa	0.06130091
217	0x3e234055	0.1594251
218	0x3df664ab	0.1203092
219	0xbde84fde	-0.113433585
220	0xbc578383	-0.013153913
221	0x3e1e79be	0.15476128
222	0xbdc0b5c3	-0.09409668
223	0x3c77c02e	0.015121503
224	0xbd908793	-0.07057109
225	0x3e23570a	0.15951172
226	0x3d1eb141	0.03874326
227	0x3ea78e30	0.32725668
228	0x3c952e64	0.018210597
229	0x3c9b333e	0.018945333
230	0xbe85ef75	-0.26159254
231	0xbc718705	-0.014741664
232	0xbe2310e7	-0.15924416
233	0xbd9a46b9	-0.075330205
234	0x3caa3ac7	0.02077998
235	0xbe0b2f12	-0.13592175
236	0x3e5f92e3	0.21833377
237	0x3e32a07f	0.17444037
238	0x3eb4dc3b	0.35324273
239	0x3c04cdfa	0.008105749
240	0xbcc1ebfe	-0.0236721
241	0xbe68ce4f	-0.2273495
242	0x3e4c2ce8	0.19939005
243	0xbe8fa5ae	-0.2805609
244	0xbd06fa0e	-0.032953314
245	0x3db04790	0.086073995
246	0x3c89a37b	0.016801586
247	0x3d3f4816	0.046699606
248	0xbd78ae6d	-0.06071322
249	0xbe1e52b1	-0.15461232
250	0xbe2398c5	-0.15976246
251	0x3d923e90	0.07140839
252	0xbd1cfac1	-0.038325075
253	0x3ee9435e	0.4555921
254	0x3dc5a62d	0.09650836
255	0x3e118170	0.14209533

decoder.coeff_nets.0.1.bias f4 [16]
0	0x3d9640fc	0.073366135
1	0x3d95c258	0.07312459
2	0x3d5f11b5	0.054460246
3	0x3d73feb4	0.059569076
4	0x3d164f04	0.03669645
5	0xbbd39f75	-0.0064582177
6	0x3e0b9743	0.1363192
7	0x3dc823eb	0.09772476
8	0xbc438adb	-0.011934961
9	0x3d589e9c	0.052885637
10	0x3df99739	0.121870466
11	0xbd6ef9ef	-0.058343824
12	0x3d89f86f	0.06736838
13	0x3db48b57	0.088156395
14	0x3daa38d4	0.0831162
15	0xbc87f69e	-0.016597088

decoder_prev.coeff_nets.0.0.0.weight f4 [50, 4]
0	0xbed48acb	-0.4151214
1	0x3ed40b69	0.41414955
2	0xbec79701	-0.38982394
3	0x3cd13b3d	0.025540942
4	0x3e6681b5	0.22510417
5	0xbf18f02a	-0.5974146
6	0x3c25c42c	0.010117572
7	0xbe615e80	-0.22008705
8	0x3ea6dd84	0.32590878
9	0xbea1c031	-0.31591943
10	0x3eada28e	0.33913082
11	0x3e7ce333	0.24696045
12	0x3e5587f1	0.20852639
13	0x3ee6552a	0.4498685
14	0x3c8dbbcc	0.017301463
15	0xbef0cc9b	-0.47031102
16	0x3f0dc815	0.55383426
17	0x3d5c27a2	0.053748734
18	0x3c37f5ea	0.011228064
19	0xbed42b45	-0.41439262
20	0xbe7c2da1	-0.24626781
21	0xbe11ce59	-0.14238872
22	0x3f0fe240	0.56204605
23	0x3e9cf844	0.30658162
24	0x3e95f5bc	0.29289043
25	0x3f004126	0.5009941
26	0xbe80ff99	-0.25195006
27	0xbd81fecd	-0.063474275
28	0xbd2805c5	-0.041021127
29	0xbec2e095	-0.38061967
30	0x3eb69f9f	0.35668656
31	0x3db68e06	0.089138076
32	0x3ec40e1c	0.38292015
33	0xbd0c4174	-0.03424211
34	0xbf05b08b	-0.5222251
35	0xbd18b44d	-0.037281323
36	0x3ef923ad	0.4866003
37	0x3e44a423	0.19203238
38	0x3e111fcd	0.14172287
39	0xbe06ee21	-0.13176776
40	0xbf22e73a	-0.63634074
41	0xbe91b250	-0.28456354
42	0x3e932175	0.28736463
43	0xbe42e9dd	-0.19034524
44	0x3e0f69b9	0.14005174
45	0x3e7b0884	0.24514967
46	0xbe475154	-0.19464618
47	0x3eb0f837	0.34564373
48	0xbdb5d9d7	-0.0887944
49	0xbd88e2fc	-0.06683919
50	0xbea0194f	-0.3126931
51	0xbebb9c70	-0.3664279
52	0x3d51a997	0.051187124
53	0x3e0c9b3c	0.13731092
54	0xbe9f3f13	-0.3110281
55	0x3e847f37	0.25878307
56	0xbec3d2d5	-0.3824679
57	0xbeda2a41	-0.42610362
58	0xbe8da606	-0.27665728
59	0xbd33dff6	-0.043914758
60	0xbce709e9	-0.028202968
61	0xbdc44010	-0.095825315
62	0x3ee9ddec	0.45677125
63	0xbec0a3a1	-0.3762484
64	0x3e10f066	0.14154205
65	0xbd31a64b	-0.04337148
66	0x3d1fff28	0.039061695
67	0x3f0db63b	0.55356187
68	0x3e739071	0.23785569
69	0xbe978905	-0.29596725
70	0xbea606da	-0.32427102
71	0xbd9e6f09	-0.07736022
72	0xbe69e43a	-0.22840968
73	0x3e5d7a96	0.21628794
74	0x3bf8a7ff	0.007588386
75	0x3ecd747b	0.4012793
76	0x3e3e1c6e	0.18565533
77	0xbe168ccf	-0.14702152
78	0x3d16eddf	0.036847945
79	0x3e04aafd	0.12955852
80	0xbdfa90df	-0.12234663
81	0x3edafde8	0.4277184
82	0xbe88dc7b	-0.26730713
83	0x3e851623	0.2599345
84	0xbe4554bd	-0.19270606
85	0xbea5b9a0	-0.32368183
86	0xbce2df1b	-0.027694276
87	0x3e9a356c	0.30118883
88	0x3f0589fc	0.5216367
89	0x3d8abb24	0.067739755
90	0xbd5da67f	-0.05411386
91	0x3ce6b4e2	0.028162424
92	0xbe841b54	-0.258021
93	0x3d189868	0.03725472
94	0x3d5d7a2f	0.0540716
95	0x3eaf7627	0.3426983
96	0x3e09b4c0	0.13447857
97	0xbed357dd	-0.41277972
98	0x3d535535	0.05159493
99	0xbea2ecd5	-0.31821314
100	0xbd55311b	-0.052048784
101	0xbea5c0db	-0.323737
102	0x3e2cf9dd	0.1689219
103	0xbeada864	-0.33917534
104	0x3ed7cc98	0.4214828
105	0x3efa7779	0.48919275
106	0xbe942901	-0.28937533
107	0xbed77fcb	-0.42089686
108	0x3d215070	0.03938335
109	0xbdba7812	-0.09104933
110	0x3e01eb4e	0.12687418
111	0xbef2f0ef	-0.47449443
112	0x3e5fb7a0	0.21847391
113	0xbe9dfe5e	-0.3085813
114	0xbe56f310	-0.20991158
115	0xbe921811	-0.28533986
116	0x3e945d9a	0.28977662
117	0xbd52fb45	-0.05150916
118	0xbed916a5	-0.4240009
119	0xbdd00f67	-0.10159188
120	0xbe105a64	-0.14096981
121	0xbeea9ff3	-0.45825157
122	0x3e673fcd	0.22582932
123	0x3e552582	0.2081509
124	0xbd1c085e	-0.038093917
125	0xbdef9826	-0.11698942
126	0xbd5b2e22	-0.053510793
127	0xbed7a81a	-0.4212044
128	0xbe780a1e	-0.2422261
129	0xbcb67b09	-0.022275465
130	0x3ed96006	0.42456073
131	0xbd2a3432	-0.041553684
132	0x3e88ab04	0.26692975
133	0xbe2ae023	-0.16687064
134	0xbca77bb6	-0.020444732
135	0xbf05281b	-0.5201432
136	0x3ef664b3	0.48123702
137	0x3eb13bbc	0.34615886
138	0x3d942a55	0.07234637
139	0x3eaa48d2	0.33258682
140	0x3ebf5dca	0.37376243
141	0x3e4e983a	0.20175257
142	0x3e6ec91d	0.23318906
143	0xbeddbc2b	-0.43307623
144	0xbf20adc1	-0.6276513
145	0xbe739bd5	-0.23789914
146	0x3e285a5a	0.16440716
147	0xbef36b25	-0.47542682
148	0xbe6d23b5	-0.23158152
149	0xbe71113f	-0.23541735
150	0xbeb9ac80	-0.3626442
151	0x3cd47c82	0.025938276
152	0x3dcd3300	0.10019493
153	0xbe7bc58f	-0.24587081
154	0x3e8c720f	0.2743077
155	0xbe1ce7df	-0.15322827
156	0xbe9f1bce	-0.310759
157	0x3edece5b	0.43516812
158	0x3ec9324f	0.39296195
159	0x3dcb3569	0.099222966
160	0xbe7693b1	-0.24079777
161	0xbe98cf53	-0.29845676
162	0xbd61c7d7	-0.055122223
163	0x3ebee76f	0.37285945
164	0x3e706737	0.23476873
165	0xbe8cfab9	-0.27535036
166	0xbee78bd2	-0.45223862
167	0xbecec18d	-0.40382043
168	0xbe628914	-0.22122604
169	0x3de35c0c	0.11101541
170	0xbe8b852e	-0.27250046
171	0xbec19ffc	-0.3781737
172	0x3c4b3b50	0.012404278
173	0xbef38c58	-0.4756801
174	0xbe875fbc	-0.26440227
175	0xbeb975a0	-0.36222553
176	0xbef5d491	-0.48013738
177	0x3f1cf706	0.6131443
178	0x3de3f3f8	0.11130518
179	0xbe3ec153	-0.18628435
180	0x3e25fdc0	0.16210079
181	0x3e1f4373	0.15553074
182	0x3e0bf876	0.13668999
183	0xbeb8cff9	-0.3609617
184	0xbe881a98	-0.2658279
185	0xbee77b51	-0.4521127
186	0xbc8efec6	-0.01745547
187	0xbeee834f	-0.46584556
188	0xbe1c3014	-0.15252715
189	0xbe9afc20	-0.3027048
190	0x3f1aa25b	0.60403985
191	0x3e8bd2cf	0.27309272
192	0x3ec860be	0.39136308
193	0xbc25fc50	-0.010130957
194	0xbe927c27	-0.28610346
195	0x3e7810df	0.24225186
196	0xbed27970	-0.41108274
197	0xbe8d7b1c	-0.27632987
198	0xbdef8713	-0.11695685
199	0xbe069b08	-0.13145077

decoder_prev.coeff_nets.0.0.0.bias f4 [50]
0	0xbecbf4a3	-0.3983508
1	0x3de755c4	0.11295655
2	0x3ec161a0	0.37769794
3	0xbe80c1f6	-0.2514798
4	0x3dc2af3c	0.095060796
5	0xbe175794	-0.14779502
6	0x3dcbd0a4	0.099519044
7	0x3ca9dd90	0.020735532
8	0x3e87e0bb	0.26538643
9	0xbcfca0b8	-0.030838355
10	0xbe5004a9	-0.20314278
11	0xbdd8d136	-0.10586779
12	0x3e3d593c	0.18491071
13	0x3e372335	0.17884524
14	0xbd3cc043	-0.046081793
15	0xbd25b0d8	-0.040451854
16	0xbd19e5d9	-0.037572715
17	0xbe60f6fc	-0.21969217
18	0xbe86709b	-0.26257786
19	0x3e0030aa	0.12518564
20	0x3e04f3db	0.12983648
21	0x3ecaf1fb	0.3963774
22	0xbdd31bb7	-0.103080206
23	0x3d55a859	0.052162502
24	0x3eb0f8e1	0.3456488
25	0x3e4a0ff0	0.19732642
26	0x3c60befc	0.013717409
27	0x3de5bbc2	0.112174526
28	0xbd81eb03	-0.06343653
29	0xbf03a34f	-0.51421064
30	0xbcea3863	-0.02859134
31	0xbd0fb4f4	-0.03508468
32	0x3ee228e9	0.44171837
33	0x3ebe3907	0.37152883
34	0x3dbd543d	0.09244583
35	0x3ec884f5	0.39163938
36	0xbe83ad4a	-0.25718147
37	0x3eecbc88	0.46237588
38	0x3ef22b2e	0.47298568
39	0xbb151a7c	-0.0022751382
40	0xbed310d1	-0.41223767
41	0xbe00fcd5	-0.12596448
42	0xbd85a0e0	-0.06524825
43	0x3d030f9d	0.03199731
44	0xbe507463	-0.20356898
45	0x3e5c56ea	0.2151753
46	0xbe0e9dbd	-0.1392736
47	0xbd40538a	-0.04695467
48	0xbe28e548	-0.16493714
49	0xbe15311f	-0.1456952

decoder_prev.coeff_nets.0.1.weight f4 [16, 50]
0	0xb9ba1214	-0.00035490154
1	0xbda3c64f	-0.07996809
2	0x3cff3091	0.031151088
3	0xbd2c47f4	-0.042060807
4	0x3d993c1c	0.07482168
5	0x38d4244a	0.00010115707
6	0x3d8e89c2	0.06959869
7	0xbd0f9caa	-0.035061516
8	0xbda8cd9e	-0.08242343
9	0xbd159ad6	-0.036524616
10	0x3ce039dd	0.027371341
11	0x3d126eb6	0.035750113
12	0xbda63cde	-0.08117078
13	0xbd7038f4	-0.058648065
14	0x3d428f38	0.047499865
15	0x3d1bb9ab	0.038018864
16	0x3cfd68cb	0.030933758
17	0xbd225cf5	-0.039639432
18	0x3bd11d04	0.0063816328
19	0xbccccc69	-0.024999814
20	0xbcdb39ff	-0.026761053
21	0x3d0286a9	0.031866703
22	0x3d655854	0.05599244
23	0xbca1b5e4	-0.019740053
24	0x3d5953f6	0.053058587
25	0xbdbcac34	-0.09212533
26	0xbd8a4aaa	-0.06752522
27	0x3b8bb212	0.004263171
28	0xbd2a8546	-0.041631006
29	0x3cb6ef6b	0.02233096
30	0x3d527422	0.051380284
31	0xbd530719	-0.05152044
32	0xbd9af942	-0.075670734
33	0x3d2d450d	0.04230218
34	0xbd872613	-0.06599059
35	0x3dbc6d16	0.09200494
36	0x3b80f474	0.003935391
37	0x3c881517	0.016611619
38	0xbe07e533	-0.13271026
39	0xbbf6baa3	-0.007529573
40	0xbd8abcf4	-0.06774321
41	0x3d2c9a57	0.042139377
42	0x3c936bf9	0.017995821
43	0x3da33eb8	0.07970947
44	0x3d375988	0.044763118
45	0xbd9c52fc	-0.076330155
46	0x3d993a6e	0.07481848
47	0x3cf35114	0.029701747
48	0x3bc2b688	0.0059421696
49	0xbdc9a9d1	-0.09846843
50	0xbdf6955c	-0.12040207
51	0x3d286535	0.041112144
52	0xbd9c1ccf	-0.07622682
53	0xbd25aeb0	-0.040449798
54	0xbc768d33	-0.015048313
55	0x3d093361	0.033496264
56	0x3cecf33a	0.028924573
57	0xbd33df33	-0.04391403
58	0x3b4f7f57	0.0031661594
59	0x3ac1ff11	0.0014800747
60	0xbcc37586	-0.02385975
61	0xbe0fa881	-0.14029123
62	0x3dbfe2a1	0.09369398
63	0xbd2e6959	-0.042580936
64	0x3c419620	0.011815578
65	0x3ccd263c	0.025042646
66	0x3ca8199e	0.020520028
67	0xbd36914f	-0.04457217
68	0x3dd0a858	0.10188359
69	0x3dbb057a	0.09131904
70	0x3d843d10	0.06456959
71	0x3d248844	0.040169016
72	0xbd83e821	-0.064407595
73	0xbd14b297	-0.03630313
74	0x3dae4388	0.08508974
75	0x3dc66efa	0.09689136
76	0x3c0c472e	0.008561892
77	0xbe084bb3	-0.13310127
78	0x3d90046c	0.070320934
79	0xbe2df160	-0.16986609
80	0x3d597e11	0.053098742
81	0x3d95388f	0.07286178
82	0x3d96de7d	0.07366655
83	0xbd43d186	-0.04780724
84	0x3d8bac8e	0.068200216
85	0xbd86b936	-0.06578295
86	0x3ce1a2ec	0.027543508
87	0xbdc571ac	-0.09640822
88	0xbce8c4e7	-0.028414203
89	0xbd6077c5	-0.05480172
90	0x3c1bb667	0.009503937
91	0x3d7342e6	0.05938997
92	0xbcf09b2a	-0.029370863
93	0xbe023f9c	-0.12719578
94	0xbc7cae02	-0.015422346
95	0x3da3e6e3	0.080030225
96	0xbd9d3457	-0.07675999
97	0xbd87a41b	-0.066230975
98	0x3dc87e18	0.097896755
99	0x3c617b5f	0.013762324
100	0x3e230cf6	0.15922913
101	0x3c26af24	0.010173593
102	0xbd4b9106	-0.049698852
103	0x3a7cdb5e	0.00096457254
104	0xbc2e16f7	-0.010625592
105	0x3b195975	0.0023399268
106	0x3d4d3646	0.050100587
107	0xbd541830	-0.05178088
108	0xbc627d16	-0.013823768
109	0x3c3cfdfe	0.011535166
110	0xbc489817	-0.012243292
111	0xbc84d112	-0.016212974
112	0xbd521415	-0.051288683
113	0xbd26c98f	-0.040719565
114	0x3d6887e2	0.056770213
115	0xbc832909	-0.016010778
116	0x3d5105c0	0.051030874
117	0xbcb78cf7	-0.022406084
118	0x3e5b03e0	0.21388197
119	0xbc20e491	-0.0098201195
120	0xbd367b62	-0.04455126
121	0xbd37586f	-0.04476207
122	0xbc1d27ae	-0.00959198
123	0xbd305dd8	-0.043058246
124	0xbd9d9704	-0.076948196
125	0xbc2657e1	-0.010152788
126	0x3c98baf9	0.018643843
127	0xbd5792e9	-0.05263034
128	0xbd78e617	-0.060766306
129	0xbd771527	-0.060322907
130	0xbbb7721f	-0.005598321
131	0xbc55b275	-0.013043036
132	0x3d34011b	0.043946367
133	0xbd69ce62	-0.057081588
134	0xbd8af98f	-0.06785881
135	0x3d36e1a9	0.0446488
136	0x3d65fde4	0.056150332
137	0xbd137c04	-0.036006942
138	0x3d96eb5e	0.073691115
139	0xbe0e0b19	-0.13871421
140	0xbd7adabc	-0.061243758
141	0x3db236bd	0.08701847
142	0xbd9dbc0e	-0.07701884
143	0x3de5c348	0.112188876
144	0x3ced586f	0.028972832
145	0xbd7827c6	-0.060584806
146	0x3d0dee21	0.034650926
147	0x3d147fa3	0.036254536
148	0x3dbaf57f	0.09128856
149	0xbde57fbc	-0.11206004
150	0xbd087bfc	-0.033321366
151	0xbd7db501	-0.061940197
152	0x3db52103	0.08844187
153	0xbc637446	-0.013882702
154	0x3c26e866	0.010187244
155	0x3c9bdf00	0.019027233
156	0xbd3a0dcd	-0.045423318
157	0xbdaa5616	-0.08317201
158	0x3d1e6253	0.038667988
159	0x3cfbe8ca	0.03075065
160	0xbd0be924	-0.034157887
161	0x3dc917b4	0.09818974
162	0x3cce820a	0.025208492
163	0xbda39788	-0.07987887
164	0x3c295b28	0.010336675
165	0xbb69cf2b	-0.003567646
166	0xbd803391	-0.062598355
167	0xbcc64a36	-0.024205308
168	0x3d3a5414	0.04549034
169	0xbd11f9b3	-0.035638522
170	0x3d348d42	0.044080026
171	0xbb2d9496	-0.002648627
172	0xbd46b969	-0.048516665
173	0xbd194452	-0.03741867
174	0xbd0c7935	-0.03429528
175	0x3d5eebd4	0.054424122
176	0xbc732616	-0.014840623
177	0x3c8ecde7	0.017432166
178	0xbd2dac58	-0.042400688
179	0x3d55210e	0.052033477
180	0x3e08b3c4	0.13349825
181	0x3d59d8e4	0.05318536
182	0xbd8b9027	-0.06814604
183	0xbc07b588	-0.0082830265
184	0xbc88c5ca	-0.016695876
185	0x3d92e9b2	0.0717348
186	0x3d974736	0.07386629
187	0x3ba2b098	0.0049648993
188	0x3c38a9f4	0.011270989
189	0x3c20fd46	0.00982601
190	0xbd9c770e	-0.076398954
191	0x3d512b7d	0.051066864
192	0x3c3c638b	0.011498342
193	0xbd5491d4	-0.051896885
194	0x3d81a97d	0.063311554
195	0xbdf9c900	-0.12196541
196	0xbd2674c7	-0.04063871
197	0xbca0c224	-0.019623823
198	0x3cac41e6	0.021027517
199	0x3d0aa2b7	0.033846583
200	0xbc5d7e48	-0.013518877
201	0xbda57177	-0.08078282
202	0xbd2c3890	-0.04204613
203	0x3d413528	0.047169834
204	0xbd88066e	-0.06641851
205	0x3d9c419f	0.07629704
206	0x3dcdac83	0.100426696
207	0xbd0a09e6	-0.033700846
208	0xbd8155be	-0.06315182
209	0xbcde7a7e	-0.027158018
210	0x3d039f9c	0.032134637
211	0xbc696b2d	-0.014246744
212	0x3b7f479a	0.003895259
213	0x3d9fff05	0.07812313
214	0x3db8a273	0.0901536
215	0x3ca4ce67	0.020117952
216	0x3d6d21aa	0.057893433
217	0xbce82aff	-0.028340815
218	0xbda2a72e	-0.07942043
219	0xbdb2c9ea	-0.08729918
220	0xbd8e5a54	-0.069508225
221	0x3dc31f40	0.09527445
222	0xbe30714c	-0.1723072
223	0xbc9ce517	-0.019152207
224	0x3c918ccc	0.017767332
225	0x3cc3496c	0.023838721
226	0xbd28ec68	-0.04124108
227	0xbc8ae44b	-0.016954562
228	0x3d9013a6	0.07034998
229	0xbe186961	-0.14883949
230	0x3cf65c29	0.030073242
231	0xbd80c9f8	-0.062885225
232	0xbdc70d70	-0.0971936
233	0x3c98304a	0.018577714
234	0x3d27af2d	0.040938545
235	0x3d922d11	0.07137502
236	0xbbde4761	-0.0067834114
237	0xbdb8dc61	-0.09026409
238	0xbafbffe1	-0.0019226038
239	0xbd3ef9b0	-0.04662484
240	0xbd3fe837	-0.046852317
241	0xbbeae6e5	-0.007168638
242	0xbd4e3668	-0.050344855
243	0x3dc8cf78	0.098051965
244	0xbd5f8bd9	-0.05457673
245	0x3d2d5fbc	0.042327628
246	0x3bfb1316	0.0076621873
247	0x3c1e9019	0.00967791
248	0xbccffc11	-0.02538875
249	0xbe0ac3e6	-0.13551292
250	0x3e2ef69b	0.1708626
251	0x3e48132f	0.19538568
252	0xbd30619b	-0.043061834
253	0x3d829a76	0.06377117
254	0x3df7584a	0.12077387
255	0x3cce3022	0.025169436

decoder_prev.coeff_nets.0.1.bias f4 [16]
0	0x3d9df1bf	0.07712125
1	0x3ba5cabd	0.0050595687
2	0x3da3eef7	0.08004563
3	0x3c03262f	0.008004709
4	0x3cddeaef	0.027089564
5	0x3bd339ab	0.0064460835
6	0xbd2b68de	-0.041848056
7	0xbd1a091c	-0.037606344
8	0xbdaf78fa	-0.08567996
9	0x3de0bae3	0.10973146
10	0xbd6e40a9	-0.058167133
11	0x3dd69143	0.10476925
12	0xbbd2d6ff	-0.006434321
13	0x3d38c0b7	0.045105662
14	0x3dfa7035	0.12228433
15	0xbd90abc6	-0.07064013
